…
    Task: explain
Thu Jul 14 06:50:48 2022
INFO: Load Dataset devign
INFO: -----------------------------------
    Task: explain
Thu Jul 14 06:51:16 2022
INFO: Load Dataset devign
INFO: -----------------------------------
    Task: explain
Thu Jul 14 06:55:43 2022
INFO: Load Dataset devign
INFO: -----------------------------------
    Task: explain
Thu Jul 14 07:00:42 2022
INFO: Load Dataset devign
INFO: -----------------------------------
    Task: explain
Thu Jul 14 07:03:43 2022
INFO: Load Dataset devign
INFO: Loading model...
INFO: DevignModel(
  (ggnn): GatedGraphConv(
    (linears): ModuleList(
      (0): Linear(in_features=200, out_features=200, bias=True)
      (1): Linear(in_features=200, out_features=200, bias=True)
      (2): Linear(in_features=200, out_features=200, bias=True)
      (3): Linear(in_features=200, out_features=200, bias=True)
    )
    (gru): GRUCell(200, 200)
  )
  (conv_l1): Conv1d(200, 200, kernel_size=(3,), stride=(1,))
  (maxpool1): MaxPool1d(kernel_size=3, stride=2, padding=0, dilation=1, ceil_mode=False)
  (conv_l2): Conv1d(200, 200, kernel_size=(1,), stride=(1,))
  (maxpool2): MaxPool1d(kernel_size=2, stride=2, padding=0, dilation=1, ceil_mode=False)
  (conv_l1_for_concat): Conv1d(300, 300, kernel_size=(3,), stride=(1,))
  (maxpool1_for_concat): MaxPool1d(kernel_size=3, stride=2, padding=0, dilation=1, ceil_mode=False)
  (conv_l2_for_concat): Conv1d(300, 300, kernel_size=(1,), stride=(1,))
  (maxpool2_for_concat): MaxPool1d(kernel_size=2, stride=2, padding=0, dilation=1, ceil_mode=False)
  (mlp_z): Linear(in_features=300, out_features=2, bias=True)
  (mlp_y): Linear(in_features=200, out_features=2, bias=True)
  (sigmoid): Sigmoid()
)
INFO: Config the model used to be explained...
INFO: -----------------------------------
    Task: explain
Thu Jul 14 07:09:16 2022
INFO: Load Dataset devign
INFO: Loading model...
INFO: DevignModel(
  (ggnn): GatedGraphConv(
    (linears): ModuleList(
      (0): Linear(in_features=200, out_features=200, bias=True)
      (1): Linear(in_features=200, out_features=200, bias=True)
      (2): Linear(in_features=200, out_features=200, bias=True)
      (3): Linear(in_features=200, out_features=200, bias=True)
    )
    (gru): GRUCell(200, 200)
  )
  (conv_l1): Conv1d(200, 200, kernel_size=(3,), stride=(1,))
  (maxpool1): MaxPool1d(kernel_size=3, stride=2, padding=0, dilation=1, ceil_mode=False)
  (conv_l2): Conv1d(200, 200, kernel_size=(1,), stride=(1,))
  (maxpool2): MaxPool1d(kernel_size=2, stride=2, padding=0, dilation=1, ceil_mode=False)
  (conv_l1_for_concat): Conv1d(300, 300, kernel_size=(3,), stride=(1,))
  (maxpool1_for_concat): MaxPool1d(kernel_size=3, stride=2, padding=0, dilation=1, ceil_mode=False)
  (conv_l2_for_concat): Conv1d(300, 300, kernel_size=(1,), stride=(1,))
  (maxpool2_for_concat): MaxPool1d(kernel_size=2, stride=2, padding=0, dilation=1, ceil_mode=False)
  (mlp_z): Linear(in_features=300, out_features=2, bias=True)
  (mlp_y): Linear(in_features=200, out_features=2, bias=True)
  (sigmoid): Sigmoid()
)
INFO: Config the model used to be explained...
INFO: -----------------------------------
    Task: explain
Thu Jul 14 07:22:18 2022
INFO: Load Dataset devign
INFO: Loading model...
INFO: DevignModel(
  (ggnn): GatedGraphConv(
    (linears): ModuleList(
      (0): Linear(in_features=200, out_features=200, bias=True)
      (1): Linear(in_features=200, out_features=200, bias=True)
      (2): Linear(in_features=200, out_features=200, bias=True)
      (3): Linear(in_features=200, out_features=200, bias=True)
    )
    (gru): GRUCell(200, 200)
  )
  (conv_l1): Conv1d(200, 200, kernel_size=(3,), stride=(1,))
  (maxpool1): MaxPool1d(kernel_size=3, stride=2, padding=0, dilation=1, ceil_mode=False)
  (conv_l2): Conv1d(200, 200, kernel_size=(1,), stride=(1,))
  (maxpool2): MaxPool1d(kernel_size=2, stride=2, padding=0, dilation=1, ceil_mode=False)
  (conv_l1_for_concat): Conv1d(300, 300, kernel_size=(3,), stride=(1,))
  (maxpool1_for_concat): MaxPool1d(kernel_size=3, stride=2, padding=0, dilation=1, ceil_mode=False)
  (conv_l2_for_concat): Conv1d(300, 300, kernel_size=(1,), stride=(1,))
  (maxpool2_for_concat): MaxPool1d(kernel_size=2, stride=2, padding=0, dilation=1, ceil_mode=False)
  (mlp_z): Linear(in_features=300, out_features=2, bias=True)
  (mlp_y): Linear(in_features=200, out_features=2, bias=True)
  (sigmoid): Sigmoid()
)
INFO: Config the model used to be explained...
INFO: -----------------------------------
    Task: explain
Thu Jul 14 07:23:00 2022
INFO: Load Dataset devign
INFO: Loading model...
INFO: -----------------------------------
    Task: explain
Thu Jul 14 07:24:50 2022
INFO: Load Dataset devign
INFO: Loading model...
INFO: DevignModel(
  (ggnn): GatedGraphConv(
    (linears): ModuleList(
      (0): Linear(in_features=200, out_features=200, bias=True)
      (1): Linear(in_features=200, out_features=200, bias=True)
      (2): Linear(in_features=200, out_features=200, bias=True)
      (3): Linear(in_features=200, out_features=200, bias=True)
    )
    (gru): GRUCell(200, 200)
  )
  (conv_l1): Conv1d(200, 200, kernel_size=(3,), stride=(1,))
  (maxpool1): MaxPool1d(kernel_size=3, stride=2, padding=0, dilation=1, ceil_mode=False)
  (conv_l2): Conv1d(200, 200, kernel_size=(1,), stride=(1,))
  (maxpool2): MaxPool1d(kernel_size=2, stride=2, padding=0, dilation=1, ceil_mode=False)
  (conv_l1_for_concat): Conv1d(300, 300, kernel_size=(3,), stride=(1,))
  (maxpool1_for_concat): MaxPool1d(kernel_size=3, stride=2, padding=0, dilation=1, ceil_mode=False)
  (conv_l2_for_concat): Conv1d(300, 300, kernel_size=(1,), stride=(1,))
  (maxpool2_for_concat): MaxPool1d(kernel_size=2, stride=2, padding=0, dilation=1, ceil_mode=False)
  (mlp_z): Linear(in_features=300, out_features=2, bias=True)
  (mlp_y): Linear(in_features=200, out_features=2, bias=True)
  (sigmoid): Sigmoid()
)
INFO: -----------------------------------
    Task: explain
Thu Jul 14 07:31:46 2022
INFO: Load Dataset devign
INFO: Loading model...
INFO: DevignModel(
  (ggnn): GatedGraphConv(
    (linears): ModuleList(
      (0): Linear(in_features=200, out_features=200, bias=True)
      (1): Linear(in_features=200, out_features=200, bias=True)
      (2): Linear(in_features=200, out_features=200, bias=True)
      (3): Linear(in_features=200, out_features=200, bias=True)
    )
    (gru): GRUCell(200, 200)
  )
  (conv_l1): Conv1d(200, 200, kernel_size=(3,), stride=(1,))
  (maxpool1): MaxPool1d(kernel_size=3, stride=2, padding=0, dilation=1, ceil_mode=False)
  (conv_l2): Conv1d(200, 200, kernel_size=(1,), stride=(1,))
  (maxpool2): MaxPool1d(kernel_size=2, stride=2, padding=0, dilation=1, ceil_mode=False)
  (conv_l1_for_concat): Conv1d(300, 300, kernel_size=(3,), stride=(1,))
  (maxpool1_for_concat): MaxPool1d(kernel_size=3, stride=2, padding=0, dilation=1, ceil_mode=False)
  (conv_l2_for_concat): Conv1d(300, 300, kernel_size=(1,), stride=(1,))
  (maxpool2_for_concat): MaxPool1d(kernel_size=2, stride=2, padding=0, dilation=1, ceil_mode=False)
  (batchnorm_1d): BatchNorm1d(200, eps=1e-05, momentum=0.1, affine=True, track_running_stats=True)
  (batchnorm_1d_for_concat): BatchNorm1d(300, eps=1e-05, momentum=0.1, affine=True, track_running_stats=True)
  (mlp_z): Linear(in_features=300, out_features=2, bias=True)
  (mlp_y): Linear(in_features=200, out_features=2, bias=True)
  (sigmoid): Sigmoid()
)
INFO: Config the model used to be explained...
INFO: Loading best Checkpoint ...
INFO: -----------------------------------
    Task: explain
Thu Jul 14 07:35:47 2022
INFO: Load Dataset devign
INFO: -----------------------------------
    Task: explain
Thu Jul 14 07:38:22 2022
INFO: Load Dataset devign
INFO: -----------------------------------
    Task: explain
Thu Jul 14 07:39:26 2022
INFO: Load Dataset devign
INFO: Loading model...
INFO: DevignModel(
  (ggnn): GatedGraphConv(
    (linears): ModuleList(
      (0): Linear(in_features=200, out_features=200, bias=True)
      (1): Linear(in_features=200, out_features=200, bias=True)
      (2): Linear(in_features=200, out_features=200, bias=True)
      (3): Linear(in_features=200, out_features=200, bias=True)
    )
    (gru): GRUCell(200, 200)
  )
  (conv_l1): Conv1d(200, 200, kernel_size=(3,), stride=(1,))
  (maxpool1): MaxPool1d(kernel_size=3, stride=2, padding=0, dilation=1, ceil_mode=False)
  (conv_l2): Conv1d(200, 200, kernel_size=(1,), stride=(1,))
  (maxpool2): MaxPool1d(kernel_size=2, stride=2, padding=0, dilation=1, ceil_mode=False)
  (conv_l1_for_concat): Conv1d(300, 300, kernel_size=(3,), stride=(1,))
  (maxpool1_for_concat): MaxPool1d(kernel_size=3, stride=2, padding=0, dilation=1, ceil_mode=False)
  (conv_l2_for_concat): Conv1d(300, 300, kernel_size=(1,), stride=(1,))
  (maxpool2_for_concat): MaxPool1d(kernel_size=2, stride=2, padding=0, dilation=1, ceil_mode=False)
  (batchnorm_1d): BatchNorm1d(200, eps=1e-05, momentum=0.1, affine=True, track_running_stats=True)
  (batchnorm_1d_for_concat): BatchNorm1d(300, eps=1e-05, momentum=0.1, affine=True, track_running_stats=True)
  (mlp_z): Linear(in_features=300, out_features=2, bias=True)
  (mlp_y): Linear(in_features=200, out_features=2, bias=True)
  (sigmoid): Sigmoid()
)
INFO: Config the model used to be explained...
INFO: Loading best Checkpoint ...
INFO: Create explainer: GNNExplainer...
INFO: Begin explain
INFO: explain graph line 4
INFO: -----------------------------------
    Task: explain
Thu Jul 14 07:54:09 2022
INFO: Load Dataset devign
INFO: Loading model...
INFO: DevignModel(
  (ggnn): GatedGraphConv(
    (linears): ModuleList(
      (0): Linear(in_features=200, out_features=200, bias=True)
      (1): Linear(in_features=200, out_features=200, bias=True)
      (2): Linear(in_features=200, out_features=200, bias=True)
      (3): Linear(in_features=200, out_features=200, bias=True)
    )
    (gru): GRUCell(200, 200)
  )
  (conv_l1): Conv1d(200, 200, kernel_size=(3,), stride=(1,))
  (maxpool1): MaxPool1d(kernel_size=3, stride=2, padding=0, dilation=1, ceil_mode=False)
  (conv_l2): Conv1d(200, 200, kernel_size=(1,), stride=(1,))
  (maxpool2): MaxPool1d(kernel_size=2, stride=2, padding=0, dilation=1, ceil_mode=False)
  (conv_l1_for_concat): Conv1d(300, 300, kernel_size=(3,), stride=(1,))
  (maxpool1_for_concat): MaxPool1d(kernel_size=3, stride=2, padding=0, dilation=1, ceil_mode=False)
  (conv_l2_for_concat): Conv1d(300, 300, kernel_size=(1,), stride=(1,))
  (maxpool2_for_concat): MaxPool1d(kernel_size=2, stride=2, padding=0, dilation=1, ceil_mode=False)
  (batchnorm_1d): BatchNorm1d(200, eps=1e-05, momentum=0.1, affine=True, track_running_stats=True)
  (batchnorm_1d_for_concat): BatchNorm1d(300, eps=1e-05, momentum=0.1, affine=True, track_running_stats=True)
  (mlp_z): Linear(in_features=300, out_features=2, bias=True)
  (mlp_y): Linear(in_features=200, out_features=2, bias=True)
  (sigmoid): Sigmoid()
)
INFO: Config the model used to be explained...
INFO: Loading best Checkpoint ...
INFO: Create explainer: GNNExplainer...
INFO: Begin explain
INFO: explain graph line 4
INFO: -----------------------------------
    Task: explain
Thu Jul 14 07:59:38 2022
INFO: Load Dataset devign
INFO: Loading model...
INFO: DevignModel(
  (ggnn): GatedGraphConv(
    (linears): ModuleList(
      (0): Linear(in_features=200, out_features=200, bias=True)
      (1): Linear(in_features=200, out_features=200, bias=True)
      (2): Linear(in_features=200, out_features=200, bias=True)
      (3): Linear(in_features=200, out_features=200, bias=True)
    )
    (gru): GRUCell(200, 200)
  )
  (conv_l1): Conv1d(200, 200, kernel_size=(3,), stride=(1,))
  (maxpool1): MaxPool1d(kernel_size=3, stride=2, padding=0, dilation=1, ceil_mode=False)
  (conv_l2): Conv1d(200, 200, kernel_size=(1,), stride=(1,))
  (maxpool2): MaxPool1d(kernel_size=2, stride=2, padding=0, dilation=1, ceil_mode=False)
  (conv_l1_for_concat): Conv1d(300, 300, kernel_size=(3,), stride=(1,))
  (maxpool1_for_concat): MaxPool1d(kernel_size=3, stride=2, padding=0, dilation=1, ceil_mode=False)
  (conv_l2_for_concat): Conv1d(300, 300, kernel_size=(1,), stride=(1,))
  (maxpool2_for_concat): MaxPool1d(kernel_size=2, stride=2, padding=0, dilation=1, ceil_mode=False)
  (batchnorm_1d): BatchNorm1d(200, eps=1e-05, momentum=0.1, affine=True, track_running_stats=True)
  (batchnorm_1d_for_concat): BatchNorm1d(300, eps=1e-05, momentum=0.1, affine=True, track_running_stats=True)
  (mlp_z): Linear(in_features=300, out_features=2, bias=True)
  (mlp_y): Linear(in_features=200, out_features=2, bias=True)
  (sigmoid): Sigmoid()
)
INFO: Config the model used to be explained...
INFO: Loading best Checkpoint ...
INFO: Create explainer: GNNExplainer...
INFO: Begin explain
INFO: explain graph line 4
INFO: -----------------------------------
    Task: explain
Thu Jul 14 08:06:40 2022
INFO: Load Dataset devign
INFO: Loading model...
INFO: DevignModel(
  (ggnn): GatedGraphConv(
    (linears): ModuleList(
      (0): Linear(in_features=200, out_features=200, bias=True)
      (1): Linear(in_features=200, out_features=200, bias=True)
      (2): Linear(in_features=200, out_features=200, bias=True)
      (3): Linear(in_features=200, out_features=200, bias=True)
    )
    (gru): GRUCell(200, 200)
  )
  (conv_l1): Conv1d(200, 200, kernel_size=(3,), stride=(1,))
  (maxpool1): MaxPool1d(kernel_size=3, stride=2, padding=0, dilation=1, ceil_mode=False)
  (conv_l2): Conv1d(200, 200, kernel_size=(1,), stride=(1,))
  (maxpool2): MaxPool1d(kernel_size=2, stride=2, padding=0, dilation=1, ceil_mode=False)
  (conv_l1_for_concat): Conv1d(300, 300, kernel_size=(3,), stride=(1,))
  (maxpool1_for_concat): MaxPool1d(kernel_size=3, stride=2, padding=0, dilation=1, ceil_mode=False)
  (conv_l2_for_concat): Conv1d(300, 300, kernel_size=(1,), stride=(1,))
  (maxpool2_for_concat): MaxPool1d(kernel_size=2, stride=2, padding=0, dilation=1, ceil_mode=False)
  (batchnorm_1d): BatchNorm1d(200, eps=1e-05, momentum=0.1, affine=True, track_running_stats=True)
  (batchnorm_1d_for_concat): BatchNorm1d(300, eps=1e-05, momentum=0.1, affine=True, track_running_stats=True)
  (mlp_z): Linear(in_features=300, out_features=2, bias=True)
  (mlp_y): Linear(in_features=200, out_features=2, bias=True)
  (sigmoid): Sigmoid()
)
INFO: Config the model used to be explained...
INFO: Loading best Checkpoint ...
INFO: Create explainer: GNNExplainer...
INFO: Begin explain
INFO: explain graph line 4
INFO: -----------------------------------
    Task: explain
Thu Jul 14 08:12:17 2022
INFO: Load Dataset devign
INFO: Loading model...
INFO: DevignModel(
  (ggnn): GatedGraphConv(
    (linears): ModuleList(
      (0): Linear(in_features=200, out_features=200, bias=True)
      (1): Linear(in_features=200, out_features=200, bias=True)
      (2): Linear(in_features=200, out_features=200, bias=True)
      (3): Linear(in_features=200, out_features=200, bias=True)
    )
    (gru): GRUCell(200, 200)
  )
  (conv_l1): Conv1d(200, 200, kernel_size=(3,), stride=(1,))
  (maxpool1): MaxPool1d(kernel_size=3, stride=2, padding=0, dilation=1, ceil_mode=False)
  (conv_l2): Conv1d(200, 200, kernel_size=(1,), stride=(1,))
  (maxpool2): MaxPool1d(kernel_size=2, stride=2, padding=0, dilation=1, ceil_mode=False)
  (conv_l1_for_concat): Conv1d(300, 300, kernel_size=(3,), stride=(1,))
  (maxpool1_for_concat): MaxPool1d(kernel_size=3, stride=2, padding=0, dilation=1, ceil_mode=False)
  (conv_l2_for_concat): Conv1d(300, 300, kernel_size=(1,), stride=(1,))
  (maxpool2_for_concat): MaxPool1d(kernel_size=2, stride=2, padding=0, dilation=1, ceil_mode=False)
  (batchnorm_1d): BatchNorm1d(200, eps=1e-05, momentum=0.1, affine=True, track_running_stats=True)
  (batchnorm_1d_for_concat): BatchNorm1d(300, eps=1e-05, momentum=0.1, affine=True, track_running_stats=True)
  (mlp_z): Linear(in_features=300, out_features=2, bias=True)
  (mlp_y): Linear(in_features=200, out_features=2, bias=True)
  (sigmoid): Sigmoid()
)
INFO: Config the model used to be explained...
INFO: Loading best Checkpoint ...
INFO: Create explainer: GNNExplainer...
INFO: Begin explain
INFO: explain graph line 4
INFO: -----------------------------------
    Task: explain
Thu Jul 14 08:15:17 2022
INFO: Load Dataset devign
INFO: Loading model...
INFO: DevignModel(
  (ggnn): GatedGraphConv(
    (linears): ModuleList(
      (0): Linear(in_features=200, out_features=200, bias=True)
      (1): Linear(in_features=200, out_features=200, bias=True)
      (2): Linear(in_features=200, out_features=200, bias=True)
      (3): Linear(in_features=200, out_features=200, bias=True)
    )
    (gru): GRUCell(200, 200)
  )
  (conv_l1): Conv1d(200, 200, kernel_size=(3,), stride=(1,))
  (maxpool1): MaxPool1d(kernel_size=3, stride=2, padding=0, dilation=1, ceil_mode=False)
  (conv_l2): Conv1d(200, 200, kernel_size=(1,), stride=(1,))
  (maxpool2): MaxPool1d(kernel_size=2, stride=2, padding=0, dilation=1, ceil_mode=False)
  (conv_l1_for_concat): Conv1d(300, 300, kernel_size=(3,), stride=(1,))
  (maxpool1_for_concat): MaxPool1d(kernel_size=3, stride=2, padding=0, dilation=1, ceil_mode=False)
  (conv_l2_for_concat): Conv1d(300, 300, kernel_size=(1,), stride=(1,))
  (maxpool2_for_concat): MaxPool1d(kernel_size=2, stride=2, padding=0, dilation=1, ceil_mode=False)
  (batchnorm_1d): BatchNorm1d(200, eps=1e-05, momentum=0.1, affine=True, track_running_stats=True)
  (batchnorm_1d_for_concat): BatchNorm1d(300, eps=1e-05, momentum=0.1, affine=True, track_running_stats=True)
  (mlp_z): Linear(in_features=300, out_features=2, bias=True)
  (mlp_y): Linear(in_features=200, out_features=2, bias=True)
  (sigmoid): Sigmoid()
)
INFO: Config the model used to be explained...
INFO: Loading best Checkpoint ...
INFO: Create explainer: GNNExplainer...
INFO: Begin explain
INFO: explain graph line 4
INFO: -----------------------------------
    Task: explain
Thu Jul 14 10:33:05 2022
INFO: Load Dataset devign
INFO: Loading model...
INFO: DevignModel(
  (ggnn): GatedGraphConv(
    (linears): ModuleList(
      (0): Linear(in_features=200, out_features=200, bias=True)
      (1): Linear(in_features=200, out_features=200, bias=True)
      (2): Linear(in_features=200, out_features=200, bias=True)
      (3): Linear(in_features=200, out_features=200, bias=True)
    )
    (gru): GRUCell(200, 200)
  )
  (conv_l1): Conv1d(200, 200, kernel_size=(3,), stride=(1,))
  (maxpool1): MaxPool1d(kernel_size=3, stride=2, padding=0, dilation=1, ceil_mode=False)
  (conv_l2): Conv1d(200, 200, kernel_size=(1,), stride=(1,))
  (maxpool2): MaxPool1d(kernel_size=2, stride=2, padding=0, dilation=1, ceil_mode=False)
  (conv_l1_for_concat): Conv1d(300, 300, kernel_size=(3,), stride=(1,))
  (maxpool1_for_concat): MaxPool1d(kernel_size=3, stride=2, padding=0, dilation=1, ceil_mode=False)
  (conv_l2_for_concat): Conv1d(300, 300, kernel_size=(1,), stride=(1,))
  (maxpool2_for_concat): MaxPool1d(kernel_size=2, stride=2, padding=0, dilation=1, ceil_mode=False)
  (mlp_z): Linear(in_features=300, out_features=2, bias=True)
  (mlp_y): Linear(in_features=200, out_features=2, bias=True)
  (sigmoid): Sigmoid()
)
INFO: Config the model used to be explained...
INFO: -----------------------------------
    Task: explain
Thu Jul 14 10:37:59 2022
INFO: Load Dataset devign
INFO: Loading model...
INFO: DevignModel(
  (ggnn): GatedGraphConv(
    (linears): ModuleList(
      (0): Linear(in_features=200, out_features=200, bias=True)
      (1): Linear(in_features=200, out_features=200, bias=True)
      (2): Linear(in_features=200, out_features=200, bias=True)
      (3): Linear(in_features=200, out_features=200, bias=True)
    )
    (gru): GRUCell(200, 200)
  )
  (conv_l1): Conv1d(200, 200, kernel_size=(3,), stride=(1,))
  (maxpool1): MaxPool1d(kernel_size=3, stride=2, padding=0, dilation=1, ceil_mode=False)
  (conv_l2): Conv1d(200, 200, kernel_size=(1,), stride=(1,))
  (maxpool2): MaxPool1d(kernel_size=2, stride=2, padding=0, dilation=1, ceil_mode=False)
  (conv_l1_for_concat): Conv1d(300, 300, kernel_size=(3,), stride=(1,))
  (maxpool1_for_concat): MaxPool1d(kernel_size=3, stride=2, padding=0, dilation=1, ceil_mode=False)
  (conv_l2_for_concat): Conv1d(300, 300, kernel_size=(1,), stride=(1,))
  (maxpool2_for_concat): MaxPool1d(kernel_size=2, stride=2, padding=0, dilation=1, ceil_mode=False)
  (mlp_z): Linear(in_features=300, out_features=2, bias=True)
  (mlp_y): Linear(in_features=200, out_features=2, bias=True)
  (sigmoid): Sigmoid()
)
INFO: Config the model used to be explained...
INFO: -----------------------------------
    Task: explain
Thu Jul 14 10:38:57 2022
INFO: Load Dataset devign
INFO: Loading model...
INFO: DevignModel(
  (ggnn): GatedGraphConv(
    (linears): ModuleList(
      (0): Linear(in_features=200, out_features=200, bias=True)
      (1): Linear(in_features=200, out_features=200, bias=True)
      (2): Linear(in_features=200, out_features=200, bias=True)
      (3): Linear(in_features=200, out_features=200, bias=True)
    )
    (gru): GRUCell(200, 200)
  )
  (conv_l1): Conv1d(200, 200, kernel_size=(3,), stride=(1,))
  (maxpool1): MaxPool1d(kernel_size=3, stride=2, padding=0, dilation=1, ceil_mode=False)
  (conv_l2): Conv1d(200, 200, kernel_size=(1,), stride=(1,))
  (maxpool2): MaxPool1d(kernel_size=2, stride=2, padding=0, dilation=1, ceil_mode=False)
  (conv_l1_for_concat): Conv1d(300, 300, kernel_size=(3,), stride=(1,))
  (maxpool1_for_concat): MaxPool1d(kernel_size=3, stride=2, padding=0, dilation=1, ceil_mode=False)
  (conv_l2_for_concat): Conv1d(300, 300, kernel_size=(1,), stride=(1,))
  (maxpool2_for_concat): MaxPool1d(kernel_size=2, stride=2, padding=0, dilation=1, ceil_mode=False)
  (batchnorm_1d): BatchNorm1d(200, eps=1e-05, momentum=0.1, affine=True, track_running_stats=True)
  (batchnorm_1d_for_concat): BatchNorm1d(300, eps=1e-05, momentum=0.1, affine=True, track_running_stats=True)
  (mlp_z): Linear(in_features=300, out_features=2, bias=True)
  (mlp_y): Linear(in_features=200, out_features=2, bias=True)
  (sigmoid): Sigmoid()
)
INFO: Config the model used to be explained...
INFO: Loading best Checkpoint ...
INFO: Create explainer: GNNExplainer...
INFO: Begin explain
INFO: -----------------------------------
    Task: explain
Thu Jul 14 10:41:29 2022
INFO: Load Dataset devign
INFO: Loading model...
INFO: DevignModel(
  (ggnn): GatedGraphConv(
    (linears): ModuleList(
      (0): Linear(in_features=200, out_features=200, bias=True)
      (1): Linear(in_features=200, out_features=200, bias=True)
      (2): Linear(in_features=200, out_features=200, bias=True)
      (3): Linear(in_features=200, out_features=200, bias=True)
    )
    (gru): GRUCell(200, 200)
  )
  (conv_l1): Conv1d(200, 200, kernel_size=(3,), stride=(1,))
  (maxpool1): MaxPool1d(kernel_size=3, stride=2, padding=0, dilation=1, ceil_mode=False)
  (conv_l2): Conv1d(200, 200, kernel_size=(1,), stride=(1,))
  (maxpool2): MaxPool1d(kernel_size=2, stride=2, padding=0, dilation=1, ceil_mode=False)
  (conv_l1_for_concat): Conv1d(300, 300, kernel_size=(3,), stride=(1,))
  (maxpool1_for_concat): MaxPool1d(kernel_size=3, stride=2, padding=0, dilation=1, ceil_mode=False)
  (conv_l2_for_concat): Conv1d(300, 300, kernel_size=(1,), stride=(1,))
  (maxpool2_for_concat): MaxPool1d(kernel_size=2, stride=2, padding=0, dilation=1, ceil_mode=False)
  (batchnorm_1d): BatchNorm1d(200, eps=1e-05, momentum=0.1, affine=True, track_running_stats=True)
  (batchnorm_1d_for_concat): BatchNorm1d(300, eps=1e-05, momentum=0.1, affine=True, track_running_stats=True)
  (mlp_z): Linear(in_features=300, out_features=2, bias=True)
  (mlp_y): Linear(in_features=200, out_features=2, bias=True)
  (sigmoid): Sigmoid()
)
INFO: Config the model used to be explained...
INFO: Loading best Checkpoint ...
INFO: Create explainer: GNNExplainer...
INFO: Begin explain
INFO: explain graph line 4
INFO: -----------------------------------
    Task: explain
Thu Jul 14 10:54:52 2022
INFO: Load Dataset devign
INFO: Loading model...
INFO: DevignModel(
  (ggnn): GatedGraphConv(
    (linears): ModuleList(
      (0): Linear(in_features=200, out_features=200, bias=True)
      (1): Linear(in_features=200, out_features=200, bias=True)
      (2): Linear(in_features=200, out_features=200, bias=True)
      (3): Linear(in_features=200, out_features=200, bias=True)
    )
    (gru): GRUCell(200, 200)
  )
  (conv_l1): Conv1d(200, 200, kernel_size=(3,), stride=(1,))
  (maxpool1): MaxPool1d(kernel_size=3, stride=2, padding=0, dilation=1, ceil_mode=False)
  (conv_l2): Conv1d(200, 200, kernel_size=(1,), stride=(1,))
  (maxpool2): MaxPool1d(kernel_size=2, stride=2, padding=0, dilation=1, ceil_mode=False)
  (conv_l1_for_concat): Conv1d(300, 300, kernel_size=(3,), stride=(1,))
  (maxpool1_for_concat): MaxPool1d(kernel_size=3, stride=2, padding=0, dilation=1, ceil_mode=False)
  (conv_l2_for_concat): Conv1d(300, 300, kernel_size=(1,), stride=(1,))
  (maxpool2_for_concat): MaxPool1d(kernel_size=2, stride=2, padding=0, dilation=1, ceil_mode=False)
  (batchnorm_1d): BatchNorm1d(200, eps=1e-05, momentum=0.1, affine=True, track_running_stats=True)
  (batchnorm_1d_for_concat): BatchNorm1d(300, eps=1e-05, momentum=0.1, affine=True, track_running_stats=True)
  (mlp_z): Linear(in_features=300, out_features=2, bias=True)
  (mlp_y): Linear(in_features=200, out_features=2, bias=True)
  (sigmoid): Sigmoid()
)
INFO: Config the model used to be explained...
INFO: Loading best Checkpoint ...
INFO: Create explainer: GNNExplainer...
INFO: Begin explain
INFO: explain graph line 4
INFO: -----------------------------------
    Task: explain
Thu Jul 14 11:00:36 2022
INFO: Load Dataset devign
INFO: Loading model...
INFO: DevignModel(
  (ggnn): GatedGraphConv(
    (linears): ModuleList(
      (0): Linear(in_features=200, out_features=200, bias=True)
      (1): Linear(in_features=200, out_features=200, bias=True)
      (2): Linear(in_features=200, out_features=200, bias=True)
      (3): Linear(in_features=200, out_features=200, bias=True)
    )
    (gru): GRUCell(200, 200)
  )
  (conv_l1): Conv1d(200, 200, kernel_size=(3,), stride=(1,))
  (maxpool1): MaxPool1d(kernel_size=3, stride=2, padding=0, dilation=1, ceil_mode=False)
  (conv_l2): Conv1d(200, 200, kernel_size=(1,), stride=(1,))
  (maxpool2): MaxPool1d(kernel_size=2, stride=2, padding=0, dilation=1, ceil_mode=False)
  (conv_l1_for_concat): Conv1d(300, 300, kernel_size=(3,), stride=(1,))
  (maxpool1_for_concat): MaxPool1d(kernel_size=3, stride=2, padding=0, dilation=1, ceil_mode=False)
  (conv_l2_for_concat): Conv1d(300, 300, kernel_size=(1,), stride=(1,))
  (maxpool2_for_concat): MaxPool1d(kernel_size=2, stride=2, padding=0, dilation=1, ceil_mode=False)
  (batchnorm_1d): BatchNorm1d(200, eps=1e-05, momentum=0.1, affine=True, track_running_stats=True)
  (batchnorm_1d_for_concat): BatchNorm1d(300, eps=1e-05, momentum=0.1, affine=True, track_running_stats=True)
  (mlp_z): Linear(in_features=300, out_features=2, bias=True)
  (mlp_y): Linear(in_features=200, out_features=2, bias=True)
  (sigmoid): Sigmoid()
)
INFO: Config the model used to be explained...
INFO: Loading best Checkpoint ...
INFO: Create explainer: GNNExplainer...
INFO: Begin explain
INFO: explain graph line 4
INFO: -----------------------------------
    Task: explain
Thu Jul 14 11:08:39 2022
INFO: Load Dataset devign
INFO: Loading model...
INFO: DevignModel(
  (ggnn): GatedGraphConv(
    (linears): ModuleList(
      (0): Linear(in_features=200, out_features=200, bias=True)
      (1): Linear(in_features=200, out_features=200, bias=True)
      (2): Linear(in_features=200, out_features=200, bias=True)
      (3): Linear(in_features=200, out_features=200, bias=True)
    )
    (gru): GRUCell(200, 200)
  )
  (conv_l1): Conv1d(200, 200, kernel_size=(3,), stride=(1,))
  (maxpool1): MaxPool1d(kernel_size=3, stride=2, padding=0, dilation=1, ceil_mode=False)
  (conv_l2): Conv1d(200, 200, kernel_size=(1,), stride=(1,))
  (maxpool2): MaxPool1d(kernel_size=2, stride=2, padding=0, dilation=1, ceil_mode=False)
  (conv_l1_for_concat): Conv1d(300, 300, kernel_size=(3,), stride=(1,))
  (maxpool1_for_concat): MaxPool1d(kernel_size=3, stride=2, padding=0, dilation=1, ceil_mode=False)
  (conv_l2_for_concat): Conv1d(300, 300, kernel_size=(1,), stride=(1,))
  (maxpool2_for_concat): MaxPool1d(kernel_size=2, stride=2, padding=0, dilation=1, ceil_mode=False)
  (batchnorm_1d): BatchNorm1d(200, eps=1e-05, momentum=0.1, affine=True, track_running_stats=True)
  (batchnorm_1d_for_concat): BatchNorm1d(300, eps=1e-05, momentum=0.1, affine=True, track_running_stats=True)
  (mlp_z): Linear(in_features=300, out_features=2, bias=True)
  (mlp_y): Linear(in_features=200, out_features=2, bias=True)
  (sigmoid): Sigmoid()
)
INFO: Config the model used to be explained...
INFO: Loading best Checkpoint ...
INFO: Create explainer: GNNExplainer...
INFO: Begin explain
INFO: explain graph line 4
ERROR: 07/14/2022 11:12:20 AM - utils.py - line 87 : Traceback (most recent call last):
  File "/home/mytest/GNNExplainer-master/benchmark/kernel/pipeline.py", line 116, in <module>
…
  File "/home/mytest/GNNExplainer-master/benchmark/kernel/explain.py", line 114, in sample_explain
    ax, G = explainer.visualize_graph(node_idx=0 if node_idx is None else node_idx, edge_index=data.edge_index,
  File "/home/mytest/GNNExplainer-master/benchmark/models/explainers.py", line 296, in visualize_graph
    nx.draw_networkx_nodes(G, pos, node_color=node_colors, **kwargs)
TypeError: draw_networkx_nodes() got an unexpected keyword argument 'num_nodes'
INFO: -----------------------------------
    Task: explain
Thu Jul 14 11:20:39 2022
INFO: Load Dataset devign
INFO: Loading model...
INFO: DevignModel(
  (ggnn): GatedGraphConv(
    (linears): ModuleList(
      (0): Linear(in_features=200, out_features=200, bias=True)
      (1): Linear(in_features=200, out_features=200, bias=True)
      (2): Linear(in_features=200, out_features=200, bias=True)
      (3): Linear(in_features=200, out_features=200, bias=True)
    )
    (gru): GRUCell(200, 200)
  )
  (conv_l1): Conv1d(200, 200, kernel_size=(3,), stride=(1,))
  (maxpool1): MaxPool1d(kernel_size=3, stride=2, padding=0, dilation=1, ceil_mode=False)
  (conv_l2): Conv1d(200, 200, kernel_size=(1,), stride=(1,))
  (maxpool2): MaxPool1d(kernel_size=2, stride=2, padding=0, dilation=1, ceil_mode=False)
  (conv_l1_for_concat): Conv1d(300, 300, kernel_size=(3,), stride=(1,))
  (maxpool1_for_concat): MaxPool1d(kernel_size=3, stride=2, padding=0, dilation=1, ceil_mode=False)
  (conv_l2_for_concat): Conv1d(300, 300, kernel_size=(1,), stride=(1,))
  (maxpool2_for_concat): MaxPool1d(kernel_size=2, stride=2, padding=0, dilation=1, ceil_mode=False)
  (batchnorm_1d): BatchNorm1d(200, eps=1e-05, momentum=0.1, affine=True, track_running_stats=True)
  (batchnorm_1d_for_concat): BatchNorm1d(300, eps=1e-05, momentum=0.1, affine=True, track_running_stats=True)
  (mlp_z): Linear(in_features=300, out_features=2, bias=True)
  (mlp_y): Linear(in_features=200, out_features=2, bias=True)
  (sigmoid): Sigmoid()
)
INFO: Config the model used to be explained...
INFO: Loading best Checkpoint ...
INFO: Create explainer: GNNExplainer...
INFO: Begin explain
INFO: explain graph line 4
INFO: explain graph line 2
WARNING: utils.py - line 52 : Called collect_data() after calculate explainable metrics.
INFO: explain graph line 6
INFO: -----------------------------------
    Task: explain
Thu Jul 14 11:30:42 2022
INFO: Load Dataset devign
INFO: Loading model...
INFO: DevignModel(
  (ggnn): GatedGraphConv(
    (linears): ModuleList(
      (0): Linear(in_features=200, out_features=200, bias=True)
      (1): Linear(in_features=200, out_features=200, bias=True)
      (2): Linear(in_features=200, out_features=200, bias=True)
      (3): Linear(in_features=200, out_features=200, bias=True)
    )
    (gru): GRUCell(200, 200)
  )
  (conv_l1): Conv1d(200, 200, kernel_size=(3,), stride=(1,))
  (maxpool1): MaxPool1d(kernel_size=3, stride=2, padding=0, dilation=1, ceil_mode=False)
  (conv_l2): Conv1d(200, 200, kernel_size=(1,), stride=(1,))
  (maxpool2): MaxPool1d(kernel_size=2, stride=2, padding=0, dilation=1, ceil_mode=False)
  (conv_l1_for_concat): Conv1d(300, 300, kernel_size=(3,), stride=(1,))
  (maxpool1_for_concat): MaxPool1d(kernel_size=3, stride=2, padding=0, dilation=1, ceil_mode=False)
  (conv_l2_for_concat): Conv1d(300, 300, kernel_size=(1,), stride=(1,))
  (maxpool2_for_concat): MaxPool1d(kernel_size=2, stride=2, padding=0, dilation=1, ceil_mode=False)
  (batchnorm_1d): BatchNorm1d(200, eps=1e-05, momentum=0.1, affine=True, track_running_stats=True)
  (batchnorm_1d_for_concat): BatchNorm1d(300, eps=1e-05, momentum=0.1, affine=True, track_running_stats=True)
  (mlp_z): Linear(in_features=300, out_features=2, bias=True)
  (mlp_y): Linear(in_features=200, out_features=2, bias=True)
  (sigmoid): Sigmoid()
)
INFO: Config the model used to be explained...
INFO: Loading best Checkpoint ...
INFO: Create explainer: GNNExplainer...
INFO: Begin explain
INFO: explain graph line 4
INFO: -----------------------------------
    Task: explain
Thu Jul 14 11:36:04 2022
INFO: Load Dataset devign
INFO: Loading model...
INFO: DevignModel(
  (ggnn): GatedGraphConv(
    (linears): ModuleList(
      (0): Linear(in_features=200, out_features=200, bias=True)
      (1): Linear(in_features=200, out_features=200, bias=True)
      (2): Linear(in_features=200, out_features=200, bias=True)
      (3): Linear(in_features=200, out_features=200, bias=True)
    )
    (gru): GRUCell(200, 200)
  )
  (conv_l1): Conv1d(200, 200, kernel_size=(3,), stride=(1,))
  (maxpool1): MaxPool1d(kernel_size=3, stride=2, padding=0, dilation=1, ceil_mode=False)
  (conv_l2): Conv1d(200, 200, kernel_size=(1,), stride=(1,))
  (maxpool2): MaxPool1d(kernel_size=2, stride=2, padding=0, dilation=1, ceil_mode=False)
  (conv_l1_for_concat): Conv1d(300, 300, kernel_size=(3,), stride=(1,))
  (maxpool1_for_concat): MaxPool1d(kernel_size=3, stride=2, padding=0, dilation=1, ceil_mode=False)
  (conv_l2_for_concat): Conv1d(300, 300, kernel_size=(1,), stride=(1,))
  (maxpool2_for_concat): MaxPool1d(kernel_size=2, stride=2, padding=0, dilation=1, ceil_mode=False)
  (batchnorm_1d): BatchNorm1d(200, eps=1e-05, momentum=0.1, affine=True, track_running_stats=True)
  (batchnorm_1d_for_concat): BatchNorm1d(300, eps=1e-05, momentum=0.1, affine=True, track_running_stats=True)
  (mlp_z): Linear(in_features=300, out_features=2, bias=True)
  (mlp_y): Linear(in_features=200, out_features=2, bias=True)
  (sigmoid): Sigmoid()
)
INFO: Config the model used to be explained...
INFO: Loading best Checkpoint ...
INFO: Create explainer: GNNExplainer...
INFO: Begin explain
INFO: explain graph line 4
INFO: -----------------------------------
    Task: explain
Thu Jul 14 12:13:00 2022
INFO: Load Dataset devign
INFO: Loading model...
INFO: DevignModel(
  (ggnn): GatedGraphConv(
    (linears): ModuleList(
      (0): Linear(in_features=200, out_features=200, bias=True)
      (1): Linear(in_features=200, out_features=200, bias=True)
      (2): Linear(in_features=200, out_features=200, bias=True)
      (3): Linear(in_features=200, out_features=200, bias=True)
    )
    (gru): GRUCell(200, 200)
  )
  (conv_l1): Conv1d(200, 200, kernel_size=(3,), stride=(1,))
  (maxpool1): MaxPool1d(kernel_size=3, stride=2, padding=0, dilation=1, ceil_mode=False)
  (conv_l2): Conv1d(200, 200, kernel_size=(1,), stride=(1,))
  (maxpool2): MaxPool1d(kernel_size=2, stride=2, padding=0, dilation=1, ceil_mode=False)
  (conv_l1_for_concat): Conv1d(300, 300, kernel_size=(3,), stride=(1,))
  (maxpool1_for_concat): MaxPool1d(kernel_size=3, stride=2, padding=0, dilation=1, ceil_mode=False)
  (conv_l2_for_concat): Conv1d(300, 300, kernel_size=(1,), stride=(1,))
  (maxpool2_for_concat): MaxPool1d(kernel_size=2, stride=2, padding=0, dilation=1, ceil_mode=False)
  (batchnorm_1d): BatchNorm1d(200, eps=1e-05, momentum=0.1, affine=True, track_running_stats=True)
  (batchnorm_1d_for_concat): BatchNorm1d(300, eps=1e-05, momentum=0.1, affine=True, track_running_stats=True)
  (mlp_z): Linear(in_features=300, out_features=2, bias=True)
  (mlp_y): Linear(in_features=200, out_features=2, bias=True)
  (sigmoid): Sigmoid()
)
INFO: Config the model used to be explained...
INFO: Loading best Checkpoint ...
INFO: Create explainer: GNNExplainer...
INFO: Begin explain
INFO: explain graph line 4
INFO: -----------------------------------
    Task: explain
Thu Jul 14 12:27:05 2022
INFO: Load Dataset devign
INFO: Loading model...
INFO: DevignModel(
  (ggnn): GatedGraphConv(
    (linears): ModuleList(
      (0): Linear(in_features=200, out_features=200, bias=True)
      (1): Linear(in_features=200, out_features=200, bias=True)
      (2): Linear(in_features=200, out_features=200, bias=True)
      (3): Linear(in_features=200, out_features=200, bias=True)
    )
    (gru): GRUCell(200, 200)
  )
  (conv_l1): Conv1d(200, 200, kernel_size=(3,), stride=(1,))
  (maxpool1): MaxPool1d(kernel_size=3, stride=2, padding=0, dilation=1, ceil_mode=False)
  (conv_l2): Conv1d(200, 200, kernel_size=(1,), stride=(1,))
  (maxpool2): MaxPool1d(kernel_size=2, stride=2, padding=0, dilation=1, ceil_mode=False)
  (conv_l1_for_concat): Conv1d(300, 300, kernel_size=(3,), stride=(1,))
  (maxpool1_for_concat): MaxPool1d(kernel_size=3, stride=2, padding=0, dilation=1, ceil_mode=False)
  (conv_l2_for_concat): Conv1d(300, 300, kernel_size=(1,), stride=(1,))
  (maxpool2_for_concat): MaxPool1d(kernel_size=2, stride=2, padding=0, dilation=1, ceil_mode=False)
  (batchnorm_1d): BatchNorm1d(200, eps=1e-05, momentum=0.1, affine=True, track_running_stats=True)
  (batchnorm_1d_for_concat): BatchNorm1d(300, eps=1e-05, momentum=0.1, affine=True, track_running_stats=True)
  (mlp_z): Linear(in_features=300, out_features=2, bias=True)
  (mlp_y): Linear(in_features=200, out_features=2, bias=True)
  (sigmoid): Sigmoid()
)
INFO: Config the model used to be explained...
INFO: Loading best Checkpoint ...
INFO: Create explainer: GNNExplainer...
INFO: Begin explain
INFO: explain graph line 4
INFO: -----------------------------------
    Task: explain
Thu Jul 14 13:08:45 2022
INFO: Load Dataset devign
INFO: Loading model...
INFO: DevignModel(
  (ggnn): GatedGraphConv(
    (linears): ModuleList(
      (0): Linear(in_features=200, out_features=200, bias=True)
      (1): Linear(in_features=200, out_features=200, bias=True)
      (2): Linear(in_features=200, out_features=200, bias=True)
      (3): Linear(in_features=200, out_features=200, bias=True)
    )
    (gru): GRUCell(200, 200)
  )
  (conv_l1): Conv1d(200, 200, kernel_size=(3,), stride=(1,))
  (maxpool1): MaxPool1d(kernel_size=3, stride=2, padding=0, dilation=1, ceil_mode=False)
  (conv_l2): Conv1d(200, 200, kernel_size=(1,), stride=(1,))
  (maxpool2): MaxPool1d(kernel_size=2, stride=2, padding=0, dilation=1, ceil_mode=False)
  (conv_l1_for_concat): Conv1d(300, 300, kernel_size=(3,), stride=(1,))
  (maxpool1_for_concat): MaxPool1d(kernel_size=3, stride=2, padding=0, dilation=1, ceil_mode=False)
  (conv_l2_for_concat): Conv1d(300, 300, kernel_size=(1,), stride=(1,))
  (maxpool2_for_concat): MaxPool1d(kernel_size=2, stride=2, padding=0, dilation=1, ceil_mode=False)
  (batchnorm_1d): BatchNorm1d(200, eps=1e-05, momentum=0.1, affine=True, track_running_stats=True)
  (batchnorm_1d_for_concat): BatchNorm1d(300, eps=1e-05, momentum=0.1, affine=True, track_running_stats=True)
  (mlp_z): Linear(in_features=300, out_features=2, bias=True)
  (mlp_y): Linear(in_features=200, out_features=2, bias=True)
  (sigmoid): Sigmoid()
)
INFO: Config the model used to be explained...
INFO: Loading best Checkpoint ...
INFO: Create explainer: GNNExplainer...
INFO: Begin explain
INFO: explain graph line 4
INFO: -----------------------------------
    Task: explain
Thu Jul 14 13:13:31 2022
INFO: Load Dataset devign
INFO: Loading model...
INFO: DevignModel(
  (ggnn): GatedGraphConv(
    (linears): ModuleList(
      (0): Linear(in_features=200, out_features=200, bias=True)
      (1): Linear(in_features=200, out_features=200, bias=True)
      (2): Linear(in_features=200, out_features=200, bias=True)
      (3): Linear(in_features=200, out_features=200, bias=True)
    )
    (gru): GRUCell(200, 200)
  )
  (conv_l1): Conv1d(200, 200, kernel_size=(3,), stride=(1,))
  (maxpool1): MaxPool1d(kernel_size=3, stride=2, padding=0, dilation=1, ceil_mode=False)
  (conv_l2): Conv1d(200, 200, kernel_size=(1,), stride=(1,))
  (maxpool2): MaxPool1d(kernel_size=2, stride=2, padding=0, dilation=1, ceil_mode=False)
  (conv_l1_for_concat): Conv1d(300, 300, kernel_size=(3,), stride=(1,))
  (maxpool1_for_concat): MaxPool1d(kernel_size=3, stride=2, padding=0, dilation=1, ceil_mode=False)
  (conv_l2_for_concat): Conv1d(300, 300, kernel_size=(1,), stride=(1,))
  (maxpool2_for_concat): MaxPool1d(kernel_size=2, stride=2, padding=0, dilation=1, ceil_mode=False)
  (batchnorm_1d): BatchNorm1d(200, eps=1e-05, momentum=0.1, affine=True, track_running_stats=True)
  (batchnorm_1d_for_concat): BatchNorm1d(300, eps=1e-05, momentum=0.1, affine=True, track_running_stats=True)
  (mlp_z): Linear(in_features=300, out_features=2, bias=True)
  (mlp_y): Linear(in_features=200, out_features=2, bias=True)
  (sigmoid): Sigmoid()
)
INFO: Config the model used to be explained...
INFO: Loading best Checkpoint ...
INFO: Create explainer: GNNExplainer...
INFO: Begin explain
INFO: explain graph line 4
INFO: -----------------------------------
    Task: explain
Thu Jul 14 13:42:56 2022
INFO: Load Dataset devign
INFO: Loading model...
INFO: DevignModel(
  (ggnn): GatedGraphConv(
    (linears): ModuleList(
      (0): Linear(in_features=200, out_features=200, bias=True)
      (1): Linear(in_features=200, out_features=200, bias=True)
      (2): Linear(in_features=200, out_features=200, bias=True)
      (3): Linear(in_features=200, out_features=200, bias=True)
    )
    (gru): GRUCell(200, 200)
  )
  (conv_l1): Conv1d(200, 200, kernel_size=(3,), stride=(1,))
  (maxpool1): MaxPool1d(kernel_size=3, stride=2, padding=0, dilation=1, ceil_mode=False)
  (conv_l2): Conv1d(200, 200, kernel_size=(1,), stride=(1,))
  (maxpool2): MaxPool1d(kernel_size=2, stride=2, padding=0, dilation=1, ceil_mode=False)
  (conv_l1_for_concat): Conv1d(300, 300, kernel_size=(3,), stride=(1,))
  (maxpool1_for_concat): MaxPool1d(kernel_size=3, stride=2, padding=0, dilation=1, ceil_mode=False)
  (conv_l2_for_concat): Conv1d(300, 300, kernel_size=(1,), stride=(1,))
  (maxpool2_for_concat): MaxPool1d(kernel_size=2, stride=2, padding=0, dilation=1, ceil_mode=False)
  (batchnorm_1d): BatchNorm1d(200, eps=1e-05, momentum=0.1, affine=True, track_running_stats=True)
  (batchnorm_1d_for_concat): BatchNorm1d(300, eps=1e-05, momentum=0.1, affine=True, track_running_stats=True)
  (mlp_z): Linear(in_features=300, out_features=2, bias=True)
  (mlp_y): Linear(in_features=200, out_features=2, bias=True)
  (sigmoid): Sigmoid()
)
INFO: Config the model used to be explained...
INFO: Loading best Checkpoint ...
INFO: Create explainer: GNNExplainer...
INFO: Begin explain
INFO: explain graph line 4
INFO: -----------------------------------
    Task: explain
Thu Jul 14 13:45:56 2022
INFO: Load Dataset devign
INFO: Loading model...
INFO: DevignModel(
  (ggnn): GatedGraphConv(
    (linears): ModuleList(
      (0): Linear(in_features=200, out_features=200, bias=True)
      (1): Linear(in_features=200, out_features=200, bias=True)
      (2): Linear(in_features=200, out_features=200, bias=True)
      (3): Linear(in_features=200, out_features=200, bias=True)
    )
    (gru): GRUCell(200, 200)
  )
  (conv_l1): Conv1d(200, 200, kernel_size=(3,), stride=(1,))
  (maxpool1): MaxPool1d(kernel_size=3, stride=2, padding=0, dilation=1, ceil_mode=False)
  (conv_l2): Conv1d(200, 200, kernel_size=(1,), stride=(1,))
  (maxpool2): MaxPool1d(kernel_size=2, stride=2, padding=0, dilation=1, ceil_mode=False)
  (conv_l1_for_concat): Conv1d(300, 300, kernel_size=(3,), stride=(1,))
  (maxpool1_for_concat): MaxPool1d(kernel_size=3, stride=2, padding=0, dilation=1, ceil_mode=False)
  (conv_l2_for_concat): Conv1d(300, 300, kernel_size=(1,), stride=(1,))
  (maxpool2_for_concat): MaxPool1d(kernel_size=2, stride=2, padding=0, dilation=1, ceil_mode=False)
  (batchnorm_1d): BatchNorm1d(200, eps=1e-05, momentum=0.1, affine=True, track_running_stats=True)
  (batchnorm_1d_for_concat): BatchNorm1d(300, eps=1e-05, momentum=0.1, affine=True, track_running_stats=True)
  (mlp_z): Linear(in_features=300, out_features=2, bias=True)
  (mlp_y): Linear(in_features=200, out_features=2, bias=True)
  (sigmoid): Sigmoid()
)
INFO: Config the model used to be explained...
INFO: Loading best Checkpoint ...
INFO: Create explainer: GNNExplainer...
INFO: Begin explain
INFO: explain graph line 4
INFO: -----------------------------------
    Task: explain
Thu Jul 14 13:49:25 2022
INFO: Load Dataset devign
INFO: Loading model...
INFO: DevignModel(
  (ggnn): GatedGraphConv(
    (linears): ModuleList(
      (0): Linear(in_features=200, out_features=200, bias=True)
      (1): Linear(in_features=200, out_features=200, bias=True)
      (2): Linear(in_features=200, out_features=200, bias=True)
      (3): Linear(in_features=200, out_features=200, bias=True)
    )
    (gru): GRUCell(200, 200)
  )
  (conv_l1): Conv1d(200, 200, kernel_size=(3,), stride=(1,))
  (maxpool1): MaxPool1d(kernel_size=3, stride=2, padding=0, dilation=1, ceil_mode=False)
  (conv_l2): Conv1d(200, 200, kernel_size=(1,), stride=(1,))
  (maxpool2): MaxPool1d(kernel_size=2, stride=2, padding=0, dilation=1, ceil_mode=False)
  (conv_l1_for_concat): Conv1d(300, 300, kernel_size=(3,), stride=(1,))
  (maxpool1_for_concat): MaxPool1d(kernel_size=3, stride=2, padding=0, dilation=1, ceil_mode=False)
  (conv_l2_for_concat): Conv1d(300, 300, kernel_size=(1,), stride=(1,))
  (maxpool2_for_concat): MaxPool1d(kernel_size=2, stride=2, padding=0, dilation=1, ceil_mode=False)
  (batchnorm_1d): BatchNorm1d(200, eps=1e-05, momentum=0.1, affine=True, track_running_stats=True)
  (batchnorm_1d_for_concat): BatchNorm1d(300, eps=1e-05, momentum=0.1, affine=True, track_running_stats=True)
  (mlp_z): Linear(in_features=300, out_features=2, bias=True)
  (mlp_y): Linear(in_features=200, out_features=2, bias=True)
  (sigmoid): Sigmoid()
)
INFO: Config the model used to be explained...
INFO: Loading best Checkpoint ...
INFO: Create explainer: GNNExplainer...
INFO: Begin explain
INFO: explain graph line 4
INFO: -----------------------------------
    Task: explain
Thu Jul 14 13:51:41 2022
INFO: Load Dataset devign
INFO: Loading model...
INFO: DevignModel(
  (ggnn): GatedGraphConv(
    (linears): ModuleList(
      (0): Linear(in_features=200, out_features=200, bias=True)
      (1): Linear(in_features=200, out_features=200, bias=True)
      (2): Linear(in_features=200, out_features=200, bias=True)
      (3): Linear(in_features=200, out_features=200, bias=True)
    )
    (gru): GRUCell(200, 200)
  )
  (conv_l1): Conv1d(200, 200, kernel_size=(3,), stride=(1,))
  (maxpool1): MaxPool1d(kernel_size=3, stride=2, padding=0, dilation=1, ceil_mode=False)
  (conv_l2): Conv1d(200, 200, kernel_size=(1,), stride=(1,))
  (maxpool2): MaxPool1d(kernel_size=2, stride=2, padding=0, dilation=1, ceil_mode=False)
  (conv_l1_for_concat): Conv1d(300, 300, kernel_size=(3,), stride=(1,))
  (maxpool1_for_concat): MaxPool1d(kernel_size=3, stride=2, padding=0, dilation=1, ceil_mode=False)
  (conv_l2_for_concat): Conv1d(300, 300, kernel_size=(1,), stride=(1,))
  (maxpool2_for_concat): MaxPool1d(kernel_size=2, stride=2, padding=0, dilation=1, ceil_mode=False)
  (batchnorm_1d): BatchNorm1d(200, eps=1e-05, momentum=0.1, affine=True, track_running_stats=True)
  (batchnorm_1d_for_concat): BatchNorm1d(300, eps=1e-05, momentum=0.1, affine=True, track_running_stats=True)
  (mlp_z): Linear(in_features=300, out_features=2, bias=True)
  (mlp_y): Linear(in_features=200, out_features=2, bias=True)
  (sigmoid): Sigmoid()
)
INFO: Config the model used to be explained...
INFO: Loading best Checkpoint ...
INFO: Create explainer: GNNExplainer...
INFO: Begin explain
INFO: explain graph line 4
INFO: -----------------------------------
    Task: explain
Thu Jul 14 13:57:31 2022
INFO: Load Dataset devign
INFO: Loading model...
INFO: DevignModel(
  (ggnn): GatedGraphConv(
    (linears): ModuleList(
      (0): Linear(in_features=200, out_features=200, bias=True)
      (1): Linear(in_features=200, out_features=200, bias=True)
      (2): Linear(in_features=200, out_features=200, bias=True)
      (3): Linear(in_features=200, out_features=200, bias=True)
    )
    (gru): GRUCell(200, 200)
  )
  (conv_l1): Conv1d(200, 200, kernel_size=(3,), stride=(1,))
  (maxpool1): MaxPool1d(kernel_size=3, stride=2, padding=0, dilation=1, ceil_mode=False)
  (conv_l2): Conv1d(200, 200, kernel_size=(1,), stride=(1,))
  (maxpool2): MaxPool1d(kernel_size=2, stride=2, padding=0, dilation=1, ceil_mode=False)
  (conv_l1_for_concat): Conv1d(300, 300, kernel_size=(3,), stride=(1,))
  (maxpool1_for_concat): MaxPool1d(kernel_size=3, stride=2, padding=0, dilation=1, ceil_mode=False)
  (conv_l2_for_concat): Conv1d(300, 300, kernel_size=(1,), stride=(1,))
  (maxpool2_for_concat): MaxPool1d(kernel_size=2, stride=2, padding=0, dilation=1, ceil_mode=False)
  (batchnorm_1d): BatchNorm1d(200, eps=1e-05, momentum=0.1, affine=True, track_running_stats=True)
  (batchnorm_1d_for_concat): BatchNorm1d(300, eps=1e-05, momentum=0.1, affine=True, track_running_stats=True)
  (mlp_z): Linear(in_features=300, out_features=2, bias=True)
  (mlp_y): Linear(in_features=200, out_features=2, bias=True)
  (sigmoid): Sigmoid()
)
INFO: Config the model used to be explained...
INFO: Loading best Checkpoint ...
INFO: Create explainer: GNNExplainer...
INFO: Begin explain
INFO: explain graph line 4
INFO: -----------------------------------
    Task: explain
Thu Jul 14 13:59:26 2022
INFO: Load Dataset devign
INFO: Loading model...
INFO: DevignModel(
  (ggnn): GatedGraphConv(
    (linears): ModuleList(
      (0): Linear(in_features=200, out_features=200, bias=True)
      (1): Linear(in_features=200, out_features=200, bias=True)
      (2): Linear(in_features=200, out_features=200, bias=True)
      (3): Linear(in_features=200, out_features=200, bias=True)
    )
    (gru): GRUCell(200, 200)
  )
  (conv_l1): Conv1d(200, 200, kernel_size=(3,), stride=(1,))
  (maxpool1): MaxPool1d(kernel_size=3, stride=2, padding=0, dilation=1, ceil_mode=False)
  (conv_l2): Conv1d(200, 200, kernel_size=(1,), stride=(1,))
  (maxpool2): MaxPool1d(kernel_size=2, stride=2, padding=0, dilation=1, ceil_mode=False)
  (conv_l1_for_concat): Conv1d(300, 300, kernel_size=(3,), stride=(1,))
  (maxpool1_for_concat): MaxPool1d(kernel_size=3, stride=2, padding=0, dilation=1, ceil_mode=False)
  (conv_l2_for_concat): Conv1d(300, 300, kernel_size=(1,), stride=(1,))
  (maxpool2_for_concat): MaxPool1d(kernel_size=2, stride=2, padding=0, dilation=1, ceil_mode=False)
  (batchnorm_1d): BatchNorm1d(200, eps=1e-05, momentum=0.1, affine=True, track_running_stats=True)
  (batchnorm_1d_for_concat): BatchNorm1d(300, eps=1e-05, momentum=0.1, affine=True, track_running_stats=True)
  (mlp_z): Linear(in_features=300, out_features=2, bias=True)
  (mlp_y): Linear(in_features=200, out_features=2, bias=True)
  (sigmoid): Sigmoid()
)
INFO: Config the model used to be explained...
INFO: Loading best Checkpoint ...
INFO: Create explainer: GNNExplainer...
INFO: Begin explain
INFO: explain graph line 4
INFO: -----------------------------------
    Task: explain
Thu Jul 14 14:08:36 2022
INFO: Load Dataset devign
INFO: Loading model...
INFO: DevignModel(
  (ggnn): GatedGraphConv(
    (linears): ModuleList(
      (0): Linear(in_features=200, out_features=200, bias=True)
      (1): Linear(in_features=200, out_features=200, bias=True)
      (2): Linear(in_features=200, out_features=200, bias=True)
      (3): Linear(in_features=200, out_features=200, bias=True)
    )
    (gru): GRUCell(200, 200)
  )
  (conv_l1): Conv1d(200, 200, kernel_size=(3,), stride=(1,))
  (maxpool1): MaxPool1d(kernel_size=3, stride=2, padding=0, dilation=1, ceil_mode=False)
  (conv_l2): Conv1d(200, 200, kernel_size=(1,), stride=(1,))
  (maxpool2): MaxPool1d(kernel_size=2, stride=2, padding=0, dilation=1, ceil_mode=False)
  (conv_l1_for_concat): Conv1d(300, 300, kernel_size=(3,), stride=(1,))
  (maxpool1_for_concat): MaxPool1d(kernel_size=3, stride=2, padding=0, dilation=1, ceil_mode=False)
  (conv_l2_for_concat): Conv1d(300, 300, kernel_size=(1,), stride=(1,))
  (maxpool2_for_concat): MaxPool1d(kernel_size=2, stride=2, padding=0, dilation=1, ceil_mode=False)
  (batchnorm_1d): BatchNorm1d(200, eps=1e-05, momentum=0.1, affine=True, track_running_stats=True)
  (batchnorm_1d_for_concat): BatchNorm1d(300, eps=1e-05, momentum=0.1, affine=True, track_running_stats=True)
  (mlp_z): Linear(in_features=300, out_features=2, bias=True)
  (mlp_y): Linear(in_features=200, out_features=2, bias=True)
  (sigmoid): Sigmoid()
)
INFO: Config the model used to be explained...
INFO: Loading best Checkpoint ...
INFO: Create explainer: GNNExplainer...
INFO: Begin explain
INFO: explain graph line 4
INFO: -----------------------------------
    Task: explain
Thu Jul 14 14:21:39 2022
INFO: Load Dataset devign
INFO: Loading model...
INFO: DevignModel(
  (ggnn): GatedGraphConv(
    (linears): ModuleList(
      (0): Linear(in_features=200, out_features=200, bias=True)
      (1): Linear(in_features=200, out_features=200, bias=True)
      (2): Linear(in_features=200, out_features=200, bias=True)
      (3): Linear(in_features=200, out_features=200, bias=True)
    )
    (gru): GRUCell(200, 200)
  )
  (conv_l1): Conv1d(200, 200, kernel_size=(3,), stride=(1,))
  (maxpool1): MaxPool1d(kernel_size=3, stride=2, padding=0, dilation=1, ceil_mode=False)
  (conv_l2): Conv1d(200, 200, kernel_size=(1,), stride=(1,))
  (maxpool2): MaxPool1d(kernel_size=2, stride=2, padding=0, dilation=1, ceil_mode=False)
  (conv_l1_for_concat): Conv1d(300, 300, kernel_size=(3,), stride=(1,))
  (maxpool1_for_concat): MaxPool1d(kernel_size=3, stride=2, padding=0, dilation=1, ceil_mode=False)
  (conv_l2_for_concat): Conv1d(300, 300, kernel_size=(1,), stride=(1,))
  (maxpool2_for_concat): MaxPool1d(kernel_size=2, stride=2, padding=0, dilation=1, ceil_mode=False)
  (batchnorm_1d): BatchNorm1d(200, eps=1e-05, momentum=0.1, affine=True, track_running_stats=True)
  (batchnorm_1d_for_concat): BatchNorm1d(300, eps=1e-05, momentum=0.1, affine=True, track_running_stats=True)
  (mlp_z): Linear(in_features=300, out_features=2, bias=True)
  (mlp_y): Linear(in_features=200, out_features=2, bias=True)
  (sigmoid): Sigmoid()
)
INFO: Config the model used to be explained...
INFO: Loading best Checkpoint ...
INFO: Create explainer: GNNExplainer...
INFO: Begin explain
INFO: explain graph line 1362
INFO: explain graph line 706
INFO: explain graph line 45
ERROR: 07/14/2022 02:33:02 PM - utils.py - line 87 : Traceback (most recent call last):
  File "/home/mytest/GNNExplainer-master/benchmark/kernel/pipeline.py", line 116, in <module>
…
  File "/root/anaconda3/envs/xgraph/lib/python3.8/site-packages/dgl/_ffi/ndarray.py", line 177, in shape
    return tuple(self.handle.contents.shape[i] for i in range(self.handle.contents.ndim))
  File "/root/anaconda3/envs/xgraph/lib/python3.8/site-packages/dgl/_ffi/ndarray.py", line 177, in <genexpr>
    return tuple(self.handle.contents.shape[i] for i in range(self.handle.contents.ndim))
KeyboardInterrupt
INFO: -----------------------------------
    Task: explain
Thu Jul 14 14:33:16 2022
INFO: Load Dataset devign
INFO: Loading model...
INFO: DevignModel(
  (ggnn): GatedGraphConv(
    (linears): ModuleList(
      (0): Linear(in_features=200, out_features=200, bias=True)
      (1): Linear(in_features=200, out_features=200, bias=True)
      (2): Linear(in_features=200, out_features=200, bias=True)
      (3): Linear(in_features=200, out_features=200, bias=True)
    )
    (gru): GRUCell(200, 200)
  )
  (conv_l1): Conv1d(200, 200, kernel_size=(3,), stride=(1,))
  (maxpool1): MaxPool1d(kernel_size=3, stride=2, padding=0, dilation=1, ceil_mode=False)
  (conv_l2): Conv1d(200, 200, kernel_size=(1,), stride=(1,))
  (maxpool2): MaxPool1d(kernel_size=2, stride=2, padding=0, dilation=1, ceil_mode=False)
  (conv_l1_for_concat): Conv1d(300, 300, kernel_size=(3,), stride=(1,))
  (maxpool1_for_concat): MaxPool1d(kernel_size=3, stride=2, padding=0, dilation=1, ceil_mode=False)
  (conv_l2_for_concat): Conv1d(300, 300, kernel_size=(1,), stride=(1,))
  (maxpool2_for_concat): MaxPool1d(kernel_size=2, stride=2, padding=0, dilation=1, ceil_mode=False)
  (batchnorm_1d): BatchNorm1d(200, eps=1e-05, momentum=0.1, affine=True, track_running_stats=True)
  (batchnorm_1d_for_concat): BatchNorm1d(300, eps=1e-05, momentum=0.1, affine=True, track_running_stats=True)
  (mlp_z): Linear(in_features=300, out_features=2, bias=True)
  (mlp_y): Linear(in_features=200, out_features=2, bias=True)
  (sigmoid): Sigmoid()
)
INFO: Config the model used to be explained...
INFO: Loading best Checkpoint ...
INFO: Create explainer: GNNExplainer...
INFO: Begin explain
INFO: explain graph line 1362
INFO: explain graph line 706
INFO: explain graph line 45
INFO: explain graph line 1387
INFO: explain graph line 1366
INFO: explain graph line 901
INFO: explain graph line 381
…
    eid = F.from_dgl_nd(edge_array(2))
  File "/root/anaconda3/envs/xgraph/lib/python3.8/site-packages/dgl/backend/__init__.py", line 129, in from_dgl_nd
    return zerocopy_from_dgl_ndarray(data)
  File "/root/anaconda3/envs/xgraph/lib/python3.8/site-packages/dgl/backend/pytorch/tensor.py", line 352, in zerocopy_from_dgl_ndarray
    elif len(data.shape) == 0 or builtins.min(data.shape) == 0:
KeyboardInterrupt
INFO: -----------------------------------
    Task: explain
Thu Jul 14 15:29:33 2022
INFO: Load Dataset devign
INFO: Loading model...
INFO: DevignModel(
  (ggnn): GatedGraphConv(
    (linears): ModuleList(
      (0): Linear(in_features=200, out_features=200, bias=True)
      (1): Linear(in_features=200, out_features=200, bias=True)
      (2): Linear(in_features=200, out_features=200, bias=True)
      (3): Linear(in_features=200, out_features=200, bias=True)
    )
    (gru): GRUCell(200, 200)
  )
  (conv_l1): Conv1d(200, 200, kernel_size=(3,), stride=(1,))
  (maxpool1): MaxPool1d(kernel_size=3, stride=2, padding=0, dilation=1, ceil_mode=False)
  (conv_l2): Conv1d(200, 200, kernel_size=(1,), stride=(1,))
  (maxpool2): MaxPool1d(kernel_size=2, stride=2, padding=0, dilation=1, ceil_mode=False)
  (conv_l1_for_concat): Conv1d(300, 300, kernel_size=(3,), stride=(1,))
  (maxpool1_for_concat): MaxPool1d(kernel_size=3, stride=2, padding=0, dilation=1, ceil_mode=False)
  (conv_l2_for_concat): Conv1d(300, 300, kernel_size=(1,), stride=(1,))
  (maxpool2_for_concat): MaxPool1d(kernel_size=2, stride=2, padding=0, dilation=1, ceil_mode=False)
  (batchnorm_1d): BatchNorm1d(200, eps=1e-05, momentum=0.1, affine=True, track_running_stats=True)
  (batchnorm_1d_for_concat): BatchNorm1d(300, eps=1e-05, momentum=0.1, affine=True, track_running_stats=True)
  (mlp_z): Linear(in_features=300, out_features=2, bias=True)
  (mlp_y): Linear(in_features=200, out_features=2, bias=True)
  (sigmoid): Sigmoid()
)
INFO: Config the model used to be explained...
INFO: Loading best Checkpoint ...
INFO: Create explainer: GNNExplainer...
INFO: Begin explain
INFO: explain graph line 1362
INFO: -----------------------------------
    Task: explain
Thu Jul 14 15:32:50 2022
INFO: Load Dataset devign
INFO: Loading model...
INFO: DevignModel(
  (ggnn): GatedGraphConv(
    (linears): ModuleList(
      (0): Linear(in_features=200, out_features=200, bias=True)
      (1): Linear(in_features=200, out_features=200, bias=True)
      (2): Linear(in_features=200, out_features=200, bias=True)
      (3): Linear(in_features=200, out_features=200, bias=True)
    )
    (gru): GRUCell(200, 200)
  )
  (conv_l1): Conv1d(200, 200, kernel_size=(3,), stride=(1,))
  (maxpool1): MaxPool1d(kernel_size=3, stride=2, padding=0, dilation=1, ceil_mode=False)
  (conv_l2): Conv1d(200, 200, kernel_size=(1,), stride=(1,))
  (maxpool2): MaxPool1d(kernel_size=2, stride=2, padding=0, dilation=1, ceil_mode=False)
  (conv_l1_for_concat): Conv1d(300, 300, kernel_size=(3,), stride=(1,))
  (maxpool1_for_concat): MaxPool1d(kernel_size=3, stride=2, padding=0, dilation=1, ceil_mode=False)
  (conv_l2_for_concat): Conv1d(300, 300, kernel_size=(1,), stride=(1,))
  (maxpool2_for_concat): MaxPool1d(kernel_size=2, stride=2, padding=0, dilation=1, ceil_mode=False)
  (batchnorm_1d): BatchNorm1d(200, eps=1e-05, momentum=0.1, affine=True, track_running_stats=True)
  (batchnorm_1d_for_concat): BatchNorm1d(300, eps=1e-05, momentum=0.1, affine=True, track_running_stats=True)
  (mlp_z): Linear(in_features=300, out_features=2, bias=True)
  (mlp_y): Linear(in_features=200, out_features=2, bias=True)
  (sigmoid): Sigmoid()
)
INFO: Config the model used to be explained...
INFO: Loading best Checkpoint ...
INFO: Create explainer: GNNExplainer...
INFO: Begin explain
INFO: explain graph line 1362
INFO: explain graph line 706
INFO: -----------------------------------
    Task: explain
Thu Jul 14 15:53:42 2022
INFO: Load Dataset devign
INFO: Loading model...
INFO: DevignModel(
  (ggnn): GatedGraphConv(
    (linears): ModuleList(
      (0): Linear(in_features=200, out_features=200, bias=True)
      (1): Linear(in_features=200, out_features=200, bias=True)
      (2): Linear(in_features=200, out_features=200, bias=True)
      (3): Linear(in_features=200, out_features=200, bias=True)
    )
    (gru): GRUCell(200, 200)
  )
  (conv_l1): Conv1d(200, 200, kernel_size=(3,), stride=(1,))
  (maxpool1): MaxPool1d(kernel_size=3, stride=2, padding=0, dilation=1, ceil_mode=False)
  (conv_l2): Conv1d(200, 200, kernel_size=(1,), stride=(1,))
  (maxpool2): MaxPool1d(kernel_size=2, stride=2, padding=0, dilation=1, ceil_mode=False)
  (conv_l1_for_concat): Conv1d(300, 300, kernel_size=(3,), stride=(1,))
  (maxpool1_for_concat): MaxPool1d(kernel_size=3, stride=2, padding=0, dilation=1, ceil_mode=False)
  (conv_l2_for_concat): Conv1d(300, 300, kernel_size=(1,), stride=(1,))
  (maxpool2_for_concat): MaxPool1d(kernel_size=2, stride=2, padding=0, dilation=1, ceil_mode=False)
  (batchnorm_1d): BatchNorm1d(200, eps=1e-05, momentum=0.1, affine=True, track_running_stats=True)
  (batchnorm_1d_for_concat): BatchNorm1d(300, eps=1e-05, momentum=0.1, affine=True, track_running_stats=True)
  (mlp_z): Linear(in_features=300, out_features=2, bias=True)
  (mlp_y): Linear(in_features=200, out_features=2, bias=True)
  (sigmoid): Sigmoid()
)
INFO: Config the model used to be explained...
INFO: Loading best Checkpoint ...
INFO: Create explainer: GNNExplainer...
INFO: Begin explain
INFO: explain graph line 4
INFO: -----------------------------------
    Task: explain
Thu Jul 14 15:58:27 2022
INFO: Load Dataset devign
INFO: Loading model...
INFO: DevignModel(
  (ggnn): GatedGraphConv(
    (linears): ModuleList(
      (0): Linear(in_features=200, out_features=200, bias=True)
      (1): Linear(in_features=200, out_features=200, bias=True)
      (2): Linear(in_features=200, out_features=200, bias=True)
      (3): Linear(in_features=200, out_features=200, bias=True)
    )
    (gru): GRUCell(200, 200)
  )
  (conv_l1): Conv1d(200, 200, kernel_size=(3,), stride=(1,))
  (maxpool1): MaxPool1d(kernel_size=3, stride=2, padding=0, dilation=1, ceil_mode=False)
  (conv_l2): Conv1d(200, 200, kernel_size=(1,), stride=(1,))
  (maxpool2): MaxPool1d(kernel_size=2, stride=2, padding=0, dilation=1, ceil_mode=False)
  (conv_l1_for_concat): Conv1d(300, 300, kernel_size=(3,), stride=(1,))
  (maxpool1_for_concat): MaxPool1d(kernel_size=3, stride=2, padding=0, dilation=1, ceil_mode=False)
  (conv_l2_for_concat): Conv1d(300, 300, kernel_size=(1,), stride=(1,))
  (maxpool2_for_concat): MaxPool1d(kernel_size=2, stride=2, padding=0, dilation=1, ceil_mode=False)
  (batchnorm_1d): BatchNorm1d(200, eps=1e-05, momentum=0.1, affine=True, track_running_stats=True)
  (batchnorm_1d_for_concat): BatchNorm1d(300, eps=1e-05, momentum=0.1, affine=True, track_running_stats=True)
  (mlp_z): Linear(in_features=300, out_features=2, bias=True)
  (mlp_y): Linear(in_features=200, out_features=2, bias=True)
  (sigmoid): Sigmoid()
)
INFO: Config the model used to be explained...
INFO: Loading best Checkpoint ...
INFO: Create explainer: GNNExplainer...
INFO: Begin explain
INFO: explain graph line 4
INFO: -----------------------------------
    Task: explain
Thu Jul 14 17:17:15 2022
INFO: Load Dataset devign
INFO: Loading model...
INFO: DevignModel(
  (ggnn): GatedGraphConv(
    (linears): ModuleList(
      (0): Linear(in_features=200, out_features=200, bias=True)
      (1): Linear(in_features=200, out_features=200, bias=True)
      (2): Linear(in_features=200, out_features=200, bias=True)
      (3): Linear(in_features=200, out_features=200, bias=True)
    )
    (gru): GRUCell(200, 200)
  )
  (conv_l1): Conv1d(200, 200, kernel_size=(3,), stride=(1,))
  (maxpool1): MaxPool1d(kernel_size=3, stride=2, padding=0, dilation=1, ceil_mode=False)
  (conv_l2): Conv1d(200, 200, kernel_size=(1,), stride=(1,))
  (maxpool2): MaxPool1d(kernel_size=2, stride=2, padding=0, dilation=1, ceil_mode=False)
  (conv_l1_for_concat): Conv1d(300, 300, kernel_size=(3,), stride=(1,))
  (maxpool1_for_concat): MaxPool1d(kernel_size=3, stride=2, padding=0, dilation=1, ceil_mode=False)
  (conv_l2_for_concat): Conv1d(300, 300, kernel_size=(1,), stride=(1,))
  (maxpool2_for_concat): MaxPool1d(kernel_size=2, stride=2, padding=0, dilation=1, ceil_mode=False)
  (batchnorm_1d): BatchNorm1d(200, eps=1e-05, momentum=0.1, affine=True, track_running_stats=True)
  (batchnorm_1d_for_concat): BatchNorm1d(300, eps=1e-05, momentum=0.1, affine=True, track_running_stats=True)
  (mlp_z): Linear(in_features=300, out_features=2, bias=True)
  (mlp_y): Linear(in_features=200, out_features=2, bias=True)
  (sigmoid): Sigmoid()
)
INFO: Config the model used to be explained...
INFO: Loading best Checkpoint ...
INFO: Create explainer: GNNExplainer...
INFO: Begin explain
INFO: explain graph line 4
INFO: -----------------------------------
    Task: explain
Thu Jul 14 17:23:36 2022
INFO: Load Dataset devign
INFO: Loading model...
INFO: DevignModel(
  (ggnn): GatedGraphConv(
    (linears): ModuleList(
      (0): Linear(in_features=200, out_features=200, bias=True)
      (1): Linear(in_features=200, out_features=200, bias=True)
      (2): Linear(in_features=200, out_features=200, bias=True)
      (3): Linear(in_features=200, out_features=200, bias=True)
    )
    (gru): GRUCell(200, 200)
  )
  (conv_l1): Conv1d(200, 200, kernel_size=(3,), stride=(1,))
  (maxpool1): MaxPool1d(kernel_size=3, stride=2, padding=0, dilation=1, ceil_mode=False)
  (conv_l2): Conv1d(200, 200, kernel_size=(1,), stride=(1,))
  (maxpool2): MaxPool1d(kernel_size=2, stride=2, padding=0, dilation=1, ceil_mode=False)
  (conv_l1_for_concat): Conv1d(300, 300, kernel_size=(3,), stride=(1,))
  (maxpool1_for_concat): MaxPool1d(kernel_size=3, stride=2, padding=0, dilation=1, ceil_mode=False)
  (conv_l2_for_concat): Conv1d(300, 300, kernel_size=(1,), stride=(1,))
  (maxpool2_for_concat): MaxPool1d(kernel_size=2, stride=2, padding=0, dilation=1, ceil_mode=False)
  (batchnorm_1d): BatchNorm1d(200, eps=1e-05, momentum=0.1, affine=True, track_running_stats=True)
  (batchnorm_1d_for_concat): BatchNorm1d(300, eps=1e-05, momentum=0.1, affine=True, track_running_stats=True)
  (mlp_z): Linear(in_features=300, out_features=2, bias=True)
  (mlp_y): Linear(in_features=200, out_features=2, bias=True)
  (sigmoid): Sigmoid()
)
INFO: Config the model used to be explained...
INFO: Loading best Checkpoint ...
INFO: Create explainer: GNNExplainer...
INFO: Begin explain
INFO: explain graph line 4
INFO: -----------------------------------
    Task: explain
Thu Jul 14 17:26:59 2022
INFO: Load Dataset devign
INFO: Loading model...
INFO: DevignModel(
  (ggnn): GatedGraphConv(
    (linears): ModuleList(
      (0): Linear(in_features=200, out_features=200, bias=True)
      (1): Linear(in_features=200, out_features=200, bias=True)
      (2): Linear(in_features=200, out_features=200, bias=True)
      (3): Linear(in_features=200, out_features=200, bias=True)
    )
    (gru): GRUCell(200, 200)
  )
  (conv_l1): Conv1d(200, 200, kernel_size=(3,), stride=(1,))
  (maxpool1): MaxPool1d(kernel_size=3, stride=2, padding=0, dilation=1, ceil_mode=False)
  (conv_l2): Conv1d(200, 200, kernel_size=(1,), stride=(1,))
  (maxpool2): MaxPool1d(kernel_size=2, stride=2, padding=0, dilation=1, ceil_mode=False)
  (conv_l1_for_concat): Conv1d(300, 300, kernel_size=(3,), stride=(1,))
  (maxpool1_for_concat): MaxPool1d(kernel_size=3, stride=2, padding=0, dilation=1, ceil_mode=False)
  (conv_l2_for_concat): Conv1d(300, 300, kernel_size=(1,), stride=(1,))
  (maxpool2_for_concat): MaxPool1d(kernel_size=2, stride=2, padding=0, dilation=1, ceil_mode=False)
  (batchnorm_1d): BatchNorm1d(200, eps=1e-05, momentum=0.1, affine=True, track_running_stats=True)
  (batchnorm_1d_for_concat): BatchNorm1d(300, eps=1e-05, momentum=0.1, affine=True, track_running_stats=True)
  (mlp_z): Linear(in_features=300, out_features=2, bias=True)
  (mlp_y): Linear(in_features=200, out_features=2, bias=True)
  (sigmoid): Sigmoid()
)
INFO: Config the model used to be explained...
INFO: Loading best Checkpoint ...
INFO: Create explainer: GNNExplainer...
INFO: Begin explain
INFO: explain graph line 4
INFO: -----------------------------------
    Task: explain
Thu Jul 14 17:44:31 2022
INFO: Load Dataset devign
INFO: Loading model...
INFO: DevignModel(
  (ggnn): GatedGraphConv(
    (linears): ModuleList(
      (0): Linear(in_features=200, out_features=200, bias=True)
      (1): Linear(in_features=200, out_features=200, bias=True)
      (2): Linear(in_features=200, out_features=200, bias=True)
      (3): Linear(in_features=200, out_features=200, bias=True)
    )
    (gru): GRUCell(200, 200)
  )
  (conv_l1): Conv1d(200, 200, kernel_size=(3,), stride=(1,))
  (maxpool1): MaxPool1d(kernel_size=3, stride=2, padding=0, dilation=1, ceil_mode=False)
  (conv_l2): Conv1d(200, 200, kernel_size=(1,), stride=(1,))
  (maxpool2): MaxPool1d(kernel_size=2, stride=2, padding=0, dilation=1, ceil_mode=False)
  (conv_l1_for_concat): Conv1d(300, 300, kernel_size=(3,), stride=(1,))
  (maxpool1_for_concat): MaxPool1d(kernel_size=3, stride=2, padding=0, dilation=1, ceil_mode=False)
  (conv_l2_for_concat): Conv1d(300, 300, kernel_size=(1,), stride=(1,))
  (maxpool2_for_concat): MaxPool1d(kernel_size=2, stride=2, padding=0, dilation=1, ceil_mode=False)
  (batchnorm_1d): BatchNorm1d(200, eps=1e-05, momentum=0.1, affine=True, track_running_stats=True)
  (batchnorm_1d_for_concat): BatchNorm1d(300, eps=1e-05, momentum=0.1, affine=True, track_running_stats=True)
  (mlp_z): Linear(in_features=300, out_features=2, bias=True)
  (mlp_y): Linear(in_features=200, out_features=2, bias=True)
  (sigmoid): Sigmoid()
)
INFO: Config the model used to be explained...
INFO: Loading best Checkpoint ...
INFO: Create explainer: GNNExplainer...
INFO: Begin explain
INFO: explain graph line 4
ERROR: 07/14/2022 05:48:21 PM - utils.py - line 87 : Traceback (most recent call last):
INFO: -----------------------------------
    Task: explain
Thu Jul 14 17:57:47 2022
INFO: Load Dataset devign
INFO: Loading model...
INFO: DevignModel(
  (ggnn): GatedGraphConv(
    (linears): ModuleList(
      (0): Linear(in_features=200, out_features=200, bias=True)
      (1): Linear(in_features=200, out_features=200, bias=True)
      (2): Linear(in_features=200, out_features=200, bias=True)
      (3): Linear(in_features=200, out_features=200, bias=True)
    )
    (gru): GRUCell(200, 200)
  )
  (conv_l1): Conv1d(200, 200, kernel_size=(3,), stride=(1,))
  (maxpool1): MaxPool1d(kernel_size=3, stride=2, padding=0, dilation=1, ceil_mode=False)
  (conv_l2): Conv1d(200, 200, kernel_size=(1,), stride=(1,))
  (maxpool2): MaxPool1d(kernel_size=2, stride=2, padding=0, dilation=1, ceil_mode=False)
  (conv_l1_for_concat): Conv1d(300, 300, kernel_size=(3,), stride=(1,))
  (maxpool1_for_concat): MaxPool1d(kernel_size=3, stride=2, padding=0, dilation=1, ceil_mode=False)
  (conv_l2_for_concat): Conv1d(300, 300, kernel_size=(1,), stride=(1,))
  (maxpool2_for_concat): MaxPool1d(kernel_size=2, stride=2, padding=0, dilation=1, ceil_mode=False)
  (batchnorm_1d): BatchNorm1d(200, eps=1e-05, momentum=0.1, affine=True, track_running_stats=True)
  (batchnorm_1d_for_concat): BatchNorm1d(300, eps=1e-05, momentum=0.1, affine=True, track_running_stats=True)
  (mlp_z): Linear(in_features=300, out_features=2, bias=True)
  (mlp_y): Linear(in_features=200, out_features=2, bias=True)
  (sigmoid): Sigmoid()
)
INFO: Config the model used to be explained...
INFO: Loading best Checkpoint ...
INFO: Create explainer: GNNExplainer...
INFO: Begin explain
INFO: explain graph line 4
INFO: -----------------------------------
    Task: explain
Thu Jul 14 18:26:53 2022
INFO: Load Dataset devign
INFO: Loading model...
INFO: DevignModel(
  (ggnn): GatedGraphConv(
    (linears): ModuleList(
      (0): Linear(in_features=200, out_features=200, bias=True)
      (1): Linear(in_features=200, out_features=200, bias=True)
      (2): Linear(in_features=200, out_features=200, bias=True)
      (3): Linear(in_features=200, out_features=200, bias=True)
    )
    (gru): GRUCell(200, 200)
  )
  (conv_l1): Conv1d(200, 200, kernel_size=(3,), stride=(1,))
  (maxpool1): MaxPool1d(kernel_size=3, stride=2, padding=0, dilation=1, ceil_mode=False)
  (conv_l2): Conv1d(200, 200, kernel_size=(1,), stride=(1,))
  (maxpool2): MaxPool1d(kernel_size=2, stride=2, padding=0, dilation=1, ceil_mode=False)
  (conv_l1_for_concat): Conv1d(300, 300, kernel_size=(3,), stride=(1,))
  (maxpool1_for_concat): MaxPool1d(kernel_size=3, stride=2, padding=0, dilation=1, ceil_mode=False)
  (conv_l2_for_concat): Conv1d(300, 300, kernel_size=(1,), stride=(1,))
  (maxpool2_for_concat): MaxPool1d(kernel_size=2, stride=2, padding=0, dilation=1, ceil_mode=False)
  (batchnorm_1d): BatchNorm1d(200, eps=1e-05, momentum=0.1, affine=True, track_running_stats=True)
  (batchnorm_1d_for_concat): BatchNorm1d(300, eps=1e-05, momentum=0.1, affine=True, track_running_stats=True)
  (mlp_z): Linear(in_features=300, out_features=2, bias=True)
  (mlp_y): Linear(in_features=200, out_features=2, bias=True)
  (sigmoid): Sigmoid()
)
INFO: Config the model used to be explained...
INFO: Loading best Checkpoint ...
INFO: Create explainer: GNNExplainer...
INFO: Begin explain
INFO: explain graph line 4
INFO: -----------------------------------
    Task: explain
Thu Jul 14 18:28:09 2022
INFO: Load Dataset devign
INFO: Loading model...
INFO: DevignModel(
  (ggnn): GatedGraphConv(
    (linears): ModuleList(
      (0): Linear(in_features=200, out_features=200, bias=True)
      (1): Linear(in_features=200, out_features=200, bias=True)
      (2): Linear(in_features=200, out_features=200, bias=True)
      (3): Linear(in_features=200, out_features=200, bias=True)
    )
    (gru): GRUCell(200, 200)
  )
  (conv_l1): Conv1d(200, 200, kernel_size=(3,), stride=(1,))
  (maxpool1): MaxPool1d(kernel_size=3, stride=2, padding=0, dilation=1, ceil_mode=False)
  (conv_l2): Conv1d(200, 200, kernel_size=(1,), stride=(1,))
  (maxpool2): MaxPool1d(kernel_size=2, stride=2, padding=0, dilation=1, ceil_mode=False)
  (conv_l1_for_concat): Conv1d(300, 300, kernel_size=(3,), stride=(1,))
  (maxpool1_for_concat): MaxPool1d(kernel_size=3, stride=2, padding=0, dilation=1, ceil_mode=False)
  (conv_l2_for_concat): Conv1d(300, 300, kernel_size=(1,), stride=(1,))
  (maxpool2_for_concat): MaxPool1d(kernel_size=2, stride=2, padding=0, dilation=1, ceil_mode=False)
  (batchnorm_1d): BatchNorm1d(200, eps=1e-05, momentum=0.1, affine=True, track_running_stats=True)
  (batchnorm_1d_for_concat): BatchNorm1d(300, eps=1e-05, momentum=0.1, affine=True, track_running_stats=True)
  (mlp_z): Linear(in_features=300, out_features=2, bias=True)
  (mlp_y): Linear(in_features=200, out_features=2, bias=True)
  (sigmoid): Sigmoid()
)
INFO: Config the model used to be explained...
INFO: Loading best Checkpoint ...
INFO: Create explainer: GNNExplainer...
INFO: Begin explain
INFO: explain graph line 4
INFO: -----------------------------------
    Task: explain
Thu Jul 14 18:29:35 2022
INFO: Load Dataset devign
INFO: Loading model...
INFO: DevignModel(
  (ggnn): GatedGraphConv(
    (linears): ModuleList(
      (0): Linear(in_features=200, out_features=200, bias=True)
      (1): Linear(in_features=200, out_features=200, bias=True)
      (2): Linear(in_features=200, out_features=200, bias=True)
      (3): Linear(in_features=200, out_features=200, bias=True)
    )
    (gru): GRUCell(200, 200)
  )
  (conv_l1): Conv1d(200, 200, kernel_size=(3,), stride=(1,))
  (maxpool1): MaxPool1d(kernel_size=3, stride=2, padding=0, dilation=1, ceil_mode=False)
  (conv_l2): Conv1d(200, 200, kernel_size=(1,), stride=(1,))
  (maxpool2): MaxPool1d(kernel_size=2, stride=2, padding=0, dilation=1, ceil_mode=False)
  (conv_l1_for_concat): Conv1d(300, 300, kernel_size=(3,), stride=(1,))
  (maxpool1_for_concat): MaxPool1d(kernel_size=3, stride=2, padding=0, dilation=1, ceil_mode=False)
  (conv_l2_for_concat): Conv1d(300, 300, kernel_size=(1,), stride=(1,))
  (maxpool2_for_concat): MaxPool1d(kernel_size=2, stride=2, padding=0, dilation=1, ceil_mode=False)
  (batchnorm_1d): BatchNorm1d(200, eps=1e-05, momentum=0.1, affine=True, track_running_stats=True)
  (batchnorm_1d_for_concat): BatchNorm1d(300, eps=1e-05, momentum=0.1, affine=True, track_running_stats=True)
  (mlp_z): Linear(in_features=300, out_features=2, bias=True)
  (mlp_y): Linear(in_features=200, out_features=2, bias=True)
  (sigmoid): Sigmoid()
)
INFO: Config the model used to be explained...
INFO: Loading best Checkpoint ...
INFO: Create explainer: GNNExplainer...
INFO: Begin explain
INFO: explain graph line 4
INFO: -----------------------------------
    Task: explain
Thu Jul 14 18:51:24 2022
INFO: Load Dataset devign
INFO: Loading model...
INFO: DevignModel(
  (ggnn): GatedGraphConv(
    (linears): ModuleList(
      (0): Linear(in_features=200, out_features=200, bias=True)
      (1): Linear(in_features=200, out_features=200, bias=True)
      (2): Linear(in_features=200, out_features=200, bias=True)
      (3): Linear(in_features=200, out_features=200, bias=True)
    )
    (gru): GRUCell(200, 200)
  )
  (conv_l1): Conv1d(200, 200, kernel_size=(3,), stride=(1,))
  (maxpool1): MaxPool1d(kernel_size=3, stride=2, padding=0, dilation=1, ceil_mode=False)
  (conv_l2): Conv1d(200, 200, kernel_size=(1,), stride=(1,))
  (maxpool2): MaxPool1d(kernel_size=2, stride=2, padding=0, dilation=1, ceil_mode=False)
  (conv_l1_for_concat): Conv1d(300, 300, kernel_size=(3,), stride=(1,))
  (maxpool1_for_concat): MaxPool1d(kernel_size=3, stride=2, padding=0, dilation=1, ceil_mode=False)
  (conv_l2_for_concat): Conv1d(300, 300, kernel_size=(1,), stride=(1,))
  (maxpool2_for_concat): MaxPool1d(kernel_size=2, stride=2, padding=0, dilation=1, ceil_mode=False)
  (batchnorm_1d): BatchNorm1d(200, eps=1e-05, momentum=0.1, affine=True, track_running_stats=True)
  (batchnorm_1d_for_concat): BatchNorm1d(300, eps=1e-05, momentum=0.1, affine=True, track_running_stats=True)
  (mlp_z): Linear(in_features=300, out_features=2, bias=True)
  (mlp_y): Linear(in_features=200, out_features=2, bias=True)
  (sigmoid): Sigmoid()
)
INFO: Config the model used to be explained...
INFO: Loading best Checkpoint ...
INFO: Create explainer: GNNExplainer...
INFO: Begin explain
INFO: explain graph line 4
INFO: -----------------------------------
    Task: explain
Thu Jul 14 18:52:01 2022
INFO: Load Dataset devign
INFO: Loading model...
INFO: DevignModel(
  (ggnn): GatedGraphConv(
    (linears): ModuleList(
      (0): Linear(in_features=200, out_features=200, bias=True)
      (1): Linear(in_features=200, out_features=200, bias=True)
      (2): Linear(in_features=200, out_features=200, bias=True)
      (3): Linear(in_features=200, out_features=200, bias=True)
    )
    (gru): GRUCell(200, 200)
  )
  (conv_l1): Conv1d(200, 200, kernel_size=(3,), stride=(1,))
  (maxpool1): MaxPool1d(kernel_size=3, stride=2, padding=0, dilation=1, ceil_mode=False)
  (conv_l2): Conv1d(200, 200, kernel_size=(1,), stride=(1,))
  (maxpool2): MaxPool1d(kernel_size=2, stride=2, padding=0, dilation=1, ceil_mode=False)
  (conv_l1_for_concat): Conv1d(300, 300, kernel_size=(3,), stride=(1,))
  (maxpool1_for_concat): MaxPool1d(kernel_size=3, stride=2, padding=0, dilation=1, ceil_mode=False)
  (conv_l2_for_concat): Conv1d(300, 300, kernel_size=(1,), stride=(1,))
  (maxpool2_for_concat): MaxPool1d(kernel_size=2, stride=2, padding=0, dilation=1, ceil_mode=False)
  (batchnorm_1d): BatchNorm1d(200, eps=1e-05, momentum=0.1, affine=True, track_running_stats=True)
  (batchnorm_1d_for_concat): BatchNorm1d(300, eps=1e-05, momentum=0.1, affine=True, track_running_stats=True)
  (mlp_z): Linear(in_features=300, out_features=2, bias=True)
  (mlp_y): Linear(in_features=200, out_features=2, bias=True)
  (sigmoid): Sigmoid()
)
INFO: Config the model used to be explained...
INFO: Loading best Checkpoint ...
INFO: Create explainer: GNNExplainer...
INFO: Begin explain
INFO: explain graph line 4
INFO: -----------------------------------
    Task: explain
Thu Jul 14 18:52:27 2022
INFO: Load Dataset devign
INFO: Loading model...
INFO: DevignModel(
  (ggnn): GatedGraphConv(
    (linears): ModuleList(
      (0): Linear(in_features=200, out_features=200, bias=True)
      (1): Linear(in_features=200, out_features=200, bias=True)
      (2): Linear(in_features=200, out_features=200, bias=True)
      (3): Linear(in_features=200, out_features=200, bias=True)
    )
    (gru): GRUCell(200, 200)
  )
  (conv_l1): Conv1d(200, 200, kernel_size=(3,), stride=(1,))
  (maxpool1): MaxPool1d(kernel_size=3, stride=2, padding=0, dilation=1, ceil_mode=False)
  (conv_l2): Conv1d(200, 200, kernel_size=(1,), stride=(1,))
  (maxpool2): MaxPool1d(kernel_size=2, stride=2, padding=0, dilation=1, ceil_mode=False)
  (conv_l1_for_concat): Conv1d(300, 300, kernel_size=(3,), stride=(1,))
  (maxpool1_for_concat): MaxPool1d(kernel_size=3, stride=2, padding=0, dilation=1, ceil_mode=False)
  (conv_l2_for_concat): Conv1d(300, 300, kernel_size=(1,), stride=(1,))
  (maxpool2_for_concat): MaxPool1d(kernel_size=2, stride=2, padding=0, dilation=1, ceil_mode=False)
  (batchnorm_1d): BatchNorm1d(200, eps=1e-05, momentum=0.1, affine=True, track_running_stats=True)
  (batchnorm_1d_for_concat): BatchNorm1d(300, eps=1e-05, momentum=0.1, affine=True, track_running_stats=True)
  (mlp_z): Linear(in_features=300, out_features=2, bias=True)
  (mlp_y): Linear(in_features=200, out_features=2, bias=True)
  (sigmoid): Sigmoid()
)
INFO: Config the model used to be explained...
INFO: Loading best Checkpoint ...
INFO: Create explainer: GNNExplainer...
INFO: Begin explain
INFO: explain graph line 4
INFO: -----------------------------------
    Task: explain
Thu Jul 14 18:53:36 2022
INFO: Load Dataset devign
INFO: Loading model...
INFO: DevignModel(
  (ggnn): GatedGraphConv(
    (linears): ModuleList(
      (0): Linear(in_features=200, out_features=200, bias=True)
      (1): Linear(in_features=200, out_features=200, bias=True)
      (2): Linear(in_features=200, out_features=200, bias=True)
      (3): Linear(in_features=200, out_features=200, bias=True)
    )
    (gru): GRUCell(200, 200)
  )
  (conv_l1): Conv1d(200, 200, kernel_size=(3,), stride=(1,))
  (maxpool1): MaxPool1d(kernel_size=3, stride=2, padding=0, dilation=1, ceil_mode=False)
  (conv_l2): Conv1d(200, 200, kernel_size=(1,), stride=(1,))
  (maxpool2): MaxPool1d(kernel_size=2, stride=2, padding=0, dilation=1, ceil_mode=False)
  (conv_l1_for_concat): Conv1d(300, 300, kernel_size=(3,), stride=(1,))
  (maxpool1_for_concat): MaxPool1d(kernel_size=3, stride=2, padding=0, dilation=1, ceil_mode=False)
  (conv_l2_for_concat): Conv1d(300, 300, kernel_size=(1,), stride=(1,))
  (maxpool2_for_concat): MaxPool1d(kernel_size=2, stride=2, padding=0, dilation=1, ceil_mode=False)
  (batchnorm_1d): BatchNorm1d(200, eps=1e-05, momentum=0.1, affine=True, track_running_stats=True)
  (batchnorm_1d_for_concat): BatchNorm1d(300, eps=1e-05, momentum=0.1, affine=True, track_running_stats=True)
  (mlp_z): Linear(in_features=300, out_features=2, bias=True)
  (mlp_y): Linear(in_features=200, out_features=2, bias=True)
  (sigmoid): Sigmoid()
)
INFO: Config the model used to be explained...
INFO: Loading best Checkpoint ...
INFO: Create explainer: GNNExplainer...
INFO: Begin explain
INFO: explain graph line 4
INFO: -----------------------------------
    Task: explain
Thu Jul 14 18:55:31 2022
INFO: Load Dataset devign
INFO: Loading model...
INFO: DevignModel(
  (ggnn): GatedGraphConv(
    (linears): ModuleList(
      (0): Linear(in_features=200, out_features=200, bias=True)
      (1): Linear(in_features=200, out_features=200, bias=True)
      (2): Linear(in_features=200, out_features=200, bias=True)
      (3): Linear(in_features=200, out_features=200, bias=True)
    )
    (gru): GRUCell(200, 200)
  )
  (conv_l1): Conv1d(200, 200, kernel_size=(3,), stride=(1,))
  (maxpool1): MaxPool1d(kernel_size=3, stride=2, padding=0, dilation=1, ceil_mode=False)
  (conv_l2): Conv1d(200, 200, kernel_size=(1,), stride=(1,))
  (maxpool2): MaxPool1d(kernel_size=2, stride=2, padding=0, dilation=1, ceil_mode=False)
  (conv_l1_for_concat): Conv1d(300, 300, kernel_size=(3,), stride=(1,))
  (maxpool1_for_concat): MaxPool1d(kernel_size=3, stride=2, padding=0, dilation=1, ceil_mode=False)
  (conv_l2_for_concat): Conv1d(300, 300, kernel_size=(1,), stride=(1,))
  (maxpool2_for_concat): MaxPool1d(kernel_size=2, stride=2, padding=0, dilation=1, ceil_mode=False)
  (batchnorm_1d): BatchNorm1d(200, eps=1e-05, momentum=0.1, affine=True, track_running_stats=True)
  (batchnorm_1d_for_concat): BatchNorm1d(300, eps=1e-05, momentum=0.1, affine=True, track_running_stats=True)
  (mlp_z): Linear(in_features=300, out_features=2, bias=True)
  (mlp_y): Linear(in_features=200, out_features=2, bias=True)
  (sigmoid): Sigmoid()
)
INFO: Config the model used to be explained...
INFO: Loading best Checkpoint ...
INFO: Create explainer: GNNExplainer...
INFO: Begin explain
INFO: explain graph line 4
INFO: -----------------------------------
    Task: explain
Thu Jul 14 18:59:57 2022
INFO: Load Dataset devign
INFO: Loading model...
INFO: DevignModel(
  (ggnn): GatedGraphConv(
    (linears): ModuleList(
      (0): Linear(in_features=200, out_features=200, bias=True)
      (1): Linear(in_features=200, out_features=200, bias=True)
      (2): Linear(in_features=200, out_features=200, bias=True)
      (3): Linear(in_features=200, out_features=200, bias=True)
    )
    (gru): GRUCell(200, 200)
  )
  (conv_l1): Conv1d(200, 200, kernel_size=(3,), stride=(1,))
  (maxpool1): MaxPool1d(kernel_size=3, stride=2, padding=0, dilation=1, ceil_mode=False)
  (conv_l2): Conv1d(200, 200, kernel_size=(1,), stride=(1,))
  (maxpool2): MaxPool1d(kernel_size=2, stride=2, padding=0, dilation=1, ceil_mode=False)
  (conv_l1_for_concat): Conv1d(300, 300, kernel_size=(3,), stride=(1,))
  (maxpool1_for_concat): MaxPool1d(kernel_size=3, stride=2, padding=0, dilation=1, ceil_mode=False)
  (conv_l2_for_concat): Conv1d(300, 300, kernel_size=(1,), stride=(1,))
  (maxpool2_for_concat): MaxPool1d(kernel_size=2, stride=2, padding=0, dilation=1, ceil_mode=False)
  (batchnorm_1d): BatchNorm1d(200, eps=1e-05, momentum=0.1, affine=True, track_running_stats=True)
  (batchnorm_1d_for_concat): BatchNorm1d(300, eps=1e-05, momentum=0.1, affine=True, track_running_stats=True)
  (mlp_z): Linear(in_features=300, out_features=2, bias=True)
  (mlp_y): Linear(in_features=200, out_features=2, bias=True)
  (sigmoid): Sigmoid()
)
INFO: Config the model used to be explained...
INFO: Loading best Checkpoint ...
INFO: Create explainer: GNNExplainer...
INFO: Begin explain
INFO: explain graph line 4
INFO: -----------------------------------
    Task: explain
Thu Jul 14 19:00:36 2022
INFO: Load Dataset devign
INFO: Loading model...
INFO: DevignModel(
  (ggnn): GatedGraphConv(
    (linears): ModuleList(
      (0): Linear(in_features=200, out_features=200, bias=True)
      (1): Linear(in_features=200, out_features=200, bias=True)
      (2): Linear(in_features=200, out_features=200, bias=True)
      (3): Linear(in_features=200, out_features=200, bias=True)
    )
    (gru): GRUCell(200, 200)
  )
  (conv_l1): Conv1d(200, 200, kernel_size=(3,), stride=(1,))
  (maxpool1): MaxPool1d(kernel_size=3, stride=2, padding=0, dilation=1, ceil_mode=False)
  (conv_l2): Conv1d(200, 200, kernel_size=(1,), stride=(1,))
  (maxpool2): MaxPool1d(kernel_size=2, stride=2, padding=0, dilation=1, ceil_mode=False)
  (conv_l1_for_concat): Conv1d(300, 300, kernel_size=(3,), stride=(1,))
  (maxpool1_for_concat): MaxPool1d(kernel_size=3, stride=2, padding=0, dilation=1, ceil_mode=False)
  (conv_l2_for_concat): Conv1d(300, 300, kernel_size=(1,), stride=(1,))
  (maxpool2_for_concat): MaxPool1d(kernel_size=2, stride=2, padding=0, dilation=1, ceil_mode=False)
  (batchnorm_1d): BatchNorm1d(200, eps=1e-05, momentum=0.1, affine=True, track_running_stats=True)
  (batchnorm_1d_for_concat): BatchNorm1d(300, eps=1e-05, momentum=0.1, affine=True, track_running_stats=True)
  (mlp_z): Linear(in_features=300, out_features=2, bias=True)
  (mlp_y): Linear(in_features=200, out_features=2, bias=True)
  (sigmoid): Sigmoid()
)
INFO: Config the model used to be explained...
INFO: Loading best Checkpoint ...
INFO: Create explainer: GNNExplainer...
INFO: Begin explain
INFO: explain graph line 4
INFO: -----------------------------------
    Task: explain
Thu Jul 14 19:02:41 2022
INFO: Load Dataset devign
INFO: Loading model...
INFO: DevignModel(
  (ggnn): GatedGraphConv(
    (linears): ModuleList(
      (0): Linear(in_features=200, out_features=200, bias=True)
      (1): Linear(in_features=200, out_features=200, bias=True)
      (2): Linear(in_features=200, out_features=200, bias=True)
      (3): Linear(in_features=200, out_features=200, bias=True)
    )
    (gru): GRUCell(200, 200)
  )
  (conv_l1): Conv1d(200, 200, kernel_size=(3,), stride=(1,))
  (maxpool1): MaxPool1d(kernel_size=3, stride=2, padding=0, dilation=1, ceil_mode=False)
  (conv_l2): Conv1d(200, 200, kernel_size=(1,), stride=(1,))
  (maxpool2): MaxPool1d(kernel_size=2, stride=2, padding=0, dilation=1, ceil_mode=False)
  (conv_l1_for_concat): Conv1d(300, 300, kernel_size=(3,), stride=(1,))
  (maxpool1_for_concat): MaxPool1d(kernel_size=3, stride=2, padding=0, dilation=1, ceil_mode=False)
  (conv_l2_for_concat): Conv1d(300, 300, kernel_size=(1,), stride=(1,))
  (maxpool2_for_concat): MaxPool1d(kernel_size=2, stride=2, padding=0, dilation=1, ceil_mode=False)
  (batchnorm_1d): BatchNorm1d(200, eps=1e-05, momentum=0.1, affine=True, track_running_stats=True)
  (batchnorm_1d_for_concat): BatchNorm1d(300, eps=1e-05, momentum=0.1, affine=True, track_running_stats=True)
  (mlp_z): Linear(in_features=300, out_features=2, bias=True)
  (mlp_y): Linear(in_features=200, out_features=2, bias=True)
  (sigmoid): Sigmoid()
)
INFO: Config the model used to be explained...
INFO: Loading best Checkpoint ...
INFO: Create explainer: GNNExplainer...
INFO: Begin explain
INFO: explain graph line 4
INFO: -----------------------------------
    Task: explain
Thu Jul 14 19:14:26 2022
INFO: Load Dataset devign
INFO: Loading model...
INFO: DevignModel(
  (ggnn): GatedGraphConv(
    (linears): ModuleList(
      (0): Linear(in_features=200, out_features=200, bias=True)
      (1): Linear(in_features=200, out_features=200, bias=True)
      (2): Linear(in_features=200, out_features=200, bias=True)
      (3): Linear(in_features=200, out_features=200, bias=True)
    )
    (gru): GRUCell(200, 200)
  )
  (conv_l1): Conv1d(200, 200, kernel_size=(3,), stride=(1,))
  (maxpool1): MaxPool1d(kernel_size=3, stride=2, padding=0, dilation=1, ceil_mode=False)
  (conv_l2): Conv1d(200, 200, kernel_size=(1,), stride=(1,))
  (maxpool2): MaxPool1d(kernel_size=2, stride=2, padding=0, dilation=1, ceil_mode=False)
  (conv_l1_for_concat): Conv1d(300, 300, kernel_size=(3,), stride=(1,))
  (maxpool1_for_concat): MaxPool1d(kernel_size=3, stride=2, padding=0, dilation=1, ceil_mode=False)
  (conv_l2_for_concat): Conv1d(300, 300, kernel_size=(1,), stride=(1,))
  (maxpool2_for_concat): MaxPool1d(kernel_size=2, stride=2, padding=0, dilation=1, ceil_mode=False)
  (batchnorm_1d): BatchNorm1d(200, eps=1e-05, momentum=0.1, affine=True, track_running_stats=True)
  (batchnorm_1d_for_concat): BatchNorm1d(300, eps=1e-05, momentum=0.1, affine=True, track_running_stats=True)
  (mlp_z): Linear(in_features=300, out_features=2, bias=True)
  (mlp_y): Linear(in_features=200, out_features=2, bias=True)
  (sigmoid): Sigmoid()
)
INFO: Config the model used to be explained...
INFO: Loading best Checkpoint ...
INFO: Create explainer: GNNExplainer...
INFO: Begin explain
INFO: explain graph line 4
ERROR: 07/14/2022 07:14:58 PM - utils.py - line 87 : Traceback (most recent call last):
  File "/home/mytest/GNNExplainer-master/benchmark/kernel/pipeline.py", line 116, in <module>
    sample_explain(explainer, data,explain_collector, sparsity=args['explain'].sparsity)
  File "/home/mytest/GNNExplainer-master/benchmark/kernel/explain.py", line 95, in sample_explain
    walks, masks, related_preds = \
TypeError: cannot unpack non-iterable NoneType object
INFO: -----------------------------------
    Task: explain
Thu Jul 14 19:15:13 2022
INFO: Load Dataset devign
INFO: Loading model...
INFO: DevignModel(
  (ggnn): GatedGraphConv(
    (linears): ModuleList(
      (0): Linear(in_features=200, out_features=200, bias=True)
      (1): Linear(in_features=200, out_features=200, bias=True)
      (2): Linear(in_features=200, out_features=200, bias=True)
      (3): Linear(in_features=200, out_features=200, bias=True)
    )
    (gru): GRUCell(200, 200)
  )
  (conv_l1): Conv1d(200, 200, kernel_size=(3,), stride=(1,))
  (maxpool1): MaxPool1d(kernel_size=3, stride=2, padding=0, dilation=1, ceil_mode=False)
  (conv_l2): Conv1d(200, 200, kernel_size=(1,), stride=(1,))
  (maxpool2): MaxPool1d(kernel_size=2, stride=2, padding=0, dilation=1, ceil_mode=False)
  (conv_l1_for_concat): Conv1d(300, 300, kernel_size=(3,), stride=(1,))
  (maxpool1_for_concat): MaxPool1d(kernel_size=3, stride=2, padding=0, dilation=1, ceil_mode=False)
  (conv_l2_for_concat): Conv1d(300, 300, kernel_size=(1,), stride=(1,))
  (maxpool2_for_concat): MaxPool1d(kernel_size=2, stride=2, padding=0, dilation=1, ceil_mode=False)
  (batchnorm_1d): BatchNorm1d(200, eps=1e-05, momentum=0.1, affine=True, track_running_stats=True)
  (batchnorm_1d_for_concat): BatchNorm1d(300, eps=1e-05, momentum=0.1, affine=True, track_running_stats=True)
  (mlp_z): Linear(in_features=300, out_features=2, bias=True)
  (mlp_y): Linear(in_features=200, out_features=2, bias=True)
  (sigmoid): Sigmoid()
)
INFO: Config the model used to be explained...
INFO: Loading best Checkpoint ...
INFO: Create explainer: GNNExplainer...
INFO: Begin explain
INFO: explain graph line 4
INFO: -----------------------------------
    Task: explain
Thu Jul 14 19:15:34 2022
INFO: Load Dataset devign
INFO: Loading model...
INFO: DevignModel(
  (ggnn): GatedGraphConv(
    (linears): ModuleList(
      (0): Linear(in_features=200, out_features=200, bias=True)
      (1): Linear(in_features=200, out_features=200, bias=True)
      (2): Linear(in_features=200, out_features=200, bias=True)
      (3): Linear(in_features=200, out_features=200, bias=True)
    )
    (gru): GRUCell(200, 200)
  )
  (conv_l1): Conv1d(200, 200, kernel_size=(3,), stride=(1,))
  (maxpool1): MaxPool1d(kernel_size=3, stride=2, padding=0, dilation=1, ceil_mode=False)
  (conv_l2): Conv1d(200, 200, kernel_size=(1,), stride=(1,))
  (maxpool2): MaxPool1d(kernel_size=2, stride=2, padding=0, dilation=1, ceil_mode=False)
  (conv_l1_for_concat): Conv1d(300, 300, kernel_size=(3,), stride=(1,))
  (maxpool1_for_concat): MaxPool1d(kernel_size=3, stride=2, padding=0, dilation=1, ceil_mode=False)
  (conv_l2_for_concat): Conv1d(300, 300, kernel_size=(1,), stride=(1,))
  (maxpool2_for_concat): MaxPool1d(kernel_size=2, stride=2, padding=0, dilation=1, ceil_mode=False)
  (batchnorm_1d): BatchNorm1d(200, eps=1e-05, momentum=0.1, affine=True, track_running_stats=True)
  (batchnorm_1d_for_concat): BatchNorm1d(300, eps=1e-05, momentum=0.1, affine=True, track_running_stats=True)
  (mlp_z): Linear(in_features=300, out_features=2, bias=True)
  (mlp_y): Linear(in_features=200, out_features=2, bias=True)
  (sigmoid): Sigmoid()
)
INFO: Config the model used to be explained...
INFO: Loading best Checkpoint ...
INFO: Create explainer: GNNExplainer...
INFO: Begin explain
INFO: explain graph line 4
ERROR: 07/14/2022 07:16:04 PM - utils.py - line 87 : Traceback (most recent call last):
  File "/home/mytest/GNNExplainer-master/benchmark/kernel/pipeline.py", line 116, in <module>
    sample_explain(explainer, data,explain_collector, sparsity=args['explain'].sparsity)
  File "/home/mytest/GNNExplainer-master/benchmark/kernel/explain.py", line 95, in sample_explain
    walks, masks, _ = \
TypeError: cannot unpack non-iterable NoneType object
INFO: -----------------------------------
    Task: explain
Thu Jul 14 19:16:49 2022
INFO: Load Dataset devign
INFO: Loading model...
INFO: DevignModel(
  (ggnn): GatedGraphConv(
    (linears): ModuleList(
      (0): Linear(in_features=200, out_features=200, bias=True)
      (1): Linear(in_features=200, out_features=200, bias=True)
      (2): Linear(in_features=200, out_features=200, bias=True)
      (3): Linear(in_features=200, out_features=200, bias=True)
    )
    (gru): GRUCell(200, 200)
  )
  (conv_l1): Conv1d(200, 200, kernel_size=(3,), stride=(1,))
  (maxpool1): MaxPool1d(kernel_size=3, stride=2, padding=0, dilation=1, ceil_mode=False)
  (conv_l2): Conv1d(200, 200, kernel_size=(1,), stride=(1,))
  (maxpool2): MaxPool1d(kernel_size=2, stride=2, padding=0, dilation=1, ceil_mode=False)
  (conv_l1_for_concat): Conv1d(300, 300, kernel_size=(3,), stride=(1,))
  (maxpool1_for_concat): MaxPool1d(kernel_size=3, stride=2, padding=0, dilation=1, ceil_mode=False)
  (conv_l2_for_concat): Conv1d(300, 300, kernel_size=(1,), stride=(1,))
  (maxpool2_for_concat): MaxPool1d(kernel_size=2, stride=2, padding=0, dilation=1, ceil_mode=False)
  (batchnorm_1d): BatchNorm1d(200, eps=1e-05, momentum=0.1, affine=True, track_running_stats=True)
  (batchnorm_1d_for_concat): BatchNorm1d(300, eps=1e-05, momentum=0.1, affine=True, track_running_stats=True)
  (mlp_z): Linear(in_features=300, out_features=2, bias=True)
  (mlp_y): Linear(in_features=200, out_features=2, bias=True)
  (sigmoid): Sigmoid()
)
INFO: Config the model used to be explained...
INFO: Loading best Checkpoint ...
INFO: Create explainer: GNNExplainer...
INFO: Begin explain
INFO: explain graph line 4
INFO: explain graph line 2
INFO: explain graph line 6
INFO: explain graph line 7
INFO: explain graph line 5
INFO: explain graph line 3
INFO: explain graph line 8
IMPORTANT: 07/14/2022 07:19:40 PM : Explain method GNNExplainer's performance on DevignModel with devign:
Fidelity: nan
Sparsity: 0.9000
Explain average time: 1.6948s
INFO: -----------------------------------
    Task: explain
Thu Jul 14 19:24:48 2022
INFO: Load Dataset devign
INFO: Loading model...
INFO: DevignModel(
  (ggnn): GatedGraphConv(
    (linears): ModuleList(
      (0): Linear(in_features=200, out_features=200, bias=True)
      (1): Linear(in_features=200, out_features=200, bias=True)
      (2): Linear(in_features=200, out_features=200, bias=True)
      (3): Linear(in_features=200, out_features=200, bias=True)
    )
    (gru): GRUCell(200, 200)
  )
  (conv_l1): Conv1d(200, 200, kernel_size=(3,), stride=(1,))
  (maxpool1): MaxPool1d(kernel_size=3, stride=2, padding=0, dilation=1, ceil_mode=False)
  (conv_l2): Conv1d(200, 200, kernel_size=(1,), stride=(1,))
  (maxpool2): MaxPool1d(kernel_size=2, stride=2, padding=0, dilation=1, ceil_mode=False)
  (conv_l1_for_concat): Conv1d(300, 300, kernel_size=(3,), stride=(1,))
  (maxpool1_for_concat): MaxPool1d(kernel_size=3, stride=2, padding=0, dilation=1, ceil_mode=False)
  (conv_l2_for_concat): Conv1d(300, 300, kernel_size=(1,), stride=(1,))
  (maxpool2_for_concat): MaxPool1d(kernel_size=2, stride=2, padding=0, dilation=1, ceil_mode=False)
  (batchnorm_1d): BatchNorm1d(200, eps=1e-05, momentum=0.1, affine=True, track_running_stats=True)
  (batchnorm_1d_for_concat): BatchNorm1d(300, eps=1e-05, momentum=0.1, affine=True, track_running_stats=True)
  (mlp_z): Linear(in_features=300, out_features=2, bias=True)
  (mlp_y): Linear(in_features=200, out_features=2, bias=True)
  (sigmoid): Sigmoid()
)
INFO: Config the model used to be explained...
INFO: Loading best Checkpoint ...
INFO: Create explainer: GNNExplainer...
INFO: Begin explain
INFO: explain graph line 4
INFO: -----------------------------------
    Task: explain
Thu Jul 14 19:26:00 2022
INFO: Load Dataset devign
INFO: Loading model...
INFO: DevignModel(
  (ggnn): GatedGraphConv(
    (linears): ModuleList(
      (0): Linear(in_features=200, out_features=200, bias=True)
      (1): Linear(in_features=200, out_features=200, bias=True)
      (2): Linear(in_features=200, out_features=200, bias=True)
      (3): Linear(in_features=200, out_features=200, bias=True)
    )
    (gru): GRUCell(200, 200)
  )
  (conv_l1): Conv1d(200, 200, kernel_size=(3,), stride=(1,))
  (maxpool1): MaxPool1d(kernel_size=3, stride=2, padding=0, dilation=1, ceil_mode=False)
  (conv_l2): Conv1d(200, 200, kernel_size=(1,), stride=(1,))
  (maxpool2): MaxPool1d(kernel_size=2, stride=2, padding=0, dilation=1, ceil_mode=False)
  (conv_l1_for_concat): Conv1d(300, 300, kernel_size=(3,), stride=(1,))
  (maxpool1_for_concat): MaxPool1d(kernel_size=3, stride=2, padding=0, dilation=1, ceil_mode=False)
  (conv_l2_for_concat): Conv1d(300, 300, kernel_size=(1,), stride=(1,))
  (maxpool2_for_concat): MaxPool1d(kernel_size=2, stride=2, padding=0, dilation=1, ceil_mode=False)
  (batchnorm_1d): BatchNorm1d(200, eps=1e-05, momentum=0.1, affine=True, track_running_stats=True)
  (batchnorm_1d_for_concat): BatchNorm1d(300, eps=1e-05, momentum=0.1, affine=True, track_running_stats=True)
  (mlp_z): Linear(in_features=300, out_features=2, bias=True)
  (mlp_y): Linear(in_features=200, out_features=2, bias=True)
  (sigmoid): Sigmoid()
)
INFO: Config the model used to be explained...
INFO: Loading best Checkpoint ...
INFO: Create explainer: GNNExplainer...
INFO: Begin explain
INFO: explain graph line 4
INFO: explain graph line 2
INFO: -----------------------------------
    Task: explain
Thu Jul 14 19:37:59 2022
INFO: Load Dataset devign
INFO: Loading model...
INFO: DevignModel(
  (ggnn): GatedGraphConv(
    (linears): ModuleList(
      (0): Linear(in_features=200, out_features=200, bias=True)
      (1): Linear(in_features=200, out_features=200, bias=True)
      (2): Linear(in_features=200, out_features=200, bias=True)
      (3): Linear(in_features=200, out_features=200, bias=True)
    )
    (gru): GRUCell(200, 200)
  )
  (conv_l1): Conv1d(200, 200, kernel_size=(3,), stride=(1,))
  (maxpool1): MaxPool1d(kernel_size=3, stride=2, padding=0, dilation=1, ceil_mode=False)
  (conv_l2): Conv1d(200, 200, kernel_size=(1,), stride=(1,))
  (maxpool2): MaxPool1d(kernel_size=2, stride=2, padding=0, dilation=1, ceil_mode=False)
  (conv_l1_for_concat): Conv1d(300, 300, kernel_size=(3,), stride=(1,))
  (maxpool1_for_concat): MaxPool1d(kernel_size=3, stride=2, padding=0, dilation=1, ceil_mode=False)
  (conv_l2_for_concat): Conv1d(300, 300, kernel_size=(1,), stride=(1,))
  (maxpool2_for_concat): MaxPool1d(kernel_size=2, stride=2, padding=0, dilation=1, ceil_mode=False)
  (batchnorm_1d): BatchNorm1d(200, eps=1e-05, momentum=0.1, affine=True, track_running_stats=True)
  (batchnorm_1d_for_concat): BatchNorm1d(300, eps=1e-05, momentum=0.1, affine=True, track_running_stats=True)
  (mlp_z): Linear(in_features=300, out_features=2, bias=True)
  (mlp_y): Linear(in_features=200, out_features=2, bias=True)
  (sigmoid): Sigmoid()
)
INFO: Config the model used to be explained...
INFO: Loading best Checkpoint ...
INFO: Create explainer: GNNExplainer...
INFO: Begin explain
INFO: explain graph line 4
INFO: -----------------------------------
    Task: explain
Thu Jul 14 19:42:37 2022
INFO: Load Dataset devign
INFO: Loading model...
INFO: DevignModel(
  (ggnn): GatedGraphConv(
    (linears): ModuleList(
      (0): Linear(in_features=200, out_features=200, bias=True)
      (1): Linear(in_features=200, out_features=200, bias=True)
      (2): Linear(in_features=200, out_features=200, bias=True)
      (3): Linear(in_features=200, out_features=200, bias=True)
    )
    (gru): GRUCell(200, 200)
  )
  (conv_l1): Conv1d(200, 200, kernel_size=(3,), stride=(1,))
  (maxpool1): MaxPool1d(kernel_size=3, stride=2, padding=0, dilation=1, ceil_mode=False)
  (conv_l2): Conv1d(200, 200, kernel_size=(1,), stride=(1,))
  (maxpool2): MaxPool1d(kernel_size=2, stride=2, padding=0, dilation=1, ceil_mode=False)
  (conv_l1_for_concat): Conv1d(300, 300, kernel_size=(3,), stride=(1,))
  (maxpool1_for_concat): MaxPool1d(kernel_size=3, stride=2, padding=0, dilation=1, ceil_mode=False)
  (conv_l2_for_concat): Conv1d(300, 300, kernel_size=(1,), stride=(1,))
  (maxpool2_for_concat): MaxPool1d(kernel_size=2, stride=2, padding=0, dilation=1, ceil_mode=False)
  (batchnorm_1d): BatchNorm1d(200, eps=1e-05, momentum=0.1, affine=True, track_running_stats=True)
  (batchnorm_1d_for_concat): BatchNorm1d(300, eps=1e-05, momentum=0.1, affine=True, track_running_stats=True)
  (mlp_z): Linear(in_features=300, out_features=2, bias=True)
  (mlp_y): Linear(in_features=200, out_features=2, bias=True)
  (sigmoid): Sigmoid()
)
INFO: Config the model used to be explained...
INFO: Loading best Checkpoint ...
INFO: Create explainer: GNNExplainer...
INFO: Begin explain
INFO: explain graph line 4
INFO: -----------------------------------
    Task: explain
Thu Jul 14 19:58:41 2022
INFO: Load Dataset devign
INFO: Loading model...
INFO: DevignModel(
  (ggnn): GatedGraphConv(
    (linears): ModuleList(
      (0): Linear(in_features=200, out_features=200, bias=True)
      (1): Linear(in_features=200, out_features=200, bias=True)
      (2): Linear(in_features=200, out_features=200, bias=True)
      (3): Linear(in_features=200, out_features=200, bias=True)
    )
    (gru): GRUCell(200, 200)
  )
  (conv_l1): Conv1d(200, 200, kernel_size=(3,), stride=(1,))
  (maxpool1): MaxPool1d(kernel_size=3, stride=2, padding=0, dilation=1, ceil_mode=False)
  (conv_l2): Conv1d(200, 200, kernel_size=(1,), stride=(1,))
  (maxpool2): MaxPool1d(kernel_size=2, stride=2, padding=0, dilation=1, ceil_mode=False)
  (conv_l1_for_concat): Conv1d(300, 300, kernel_size=(3,), stride=(1,))
  (maxpool1_for_concat): MaxPool1d(kernel_size=3, stride=2, padding=0, dilation=1, ceil_mode=False)
  (conv_l2_for_concat): Conv1d(300, 300, kernel_size=(1,), stride=(1,))
  (maxpool2_for_concat): MaxPool1d(kernel_size=2, stride=2, padding=0, dilation=1, ceil_mode=False)
  (batchnorm_1d): BatchNorm1d(200, eps=1e-05, momentum=0.1, affine=True, track_running_stats=True)
  (batchnorm_1d_for_concat): BatchNorm1d(300, eps=1e-05, momentum=0.1, affine=True, track_running_stats=True)
  (mlp_z): Linear(in_features=300, out_features=2, bias=True)
  (mlp_y): Linear(in_features=200, out_features=2, bias=True)
  (sigmoid): Sigmoid()
)
INFO: Config the model used to be explained...
INFO: Loading best Checkpoint ...
INFO: Create explainer: GNNExplainer...
INFO: Begin explain
INFO: explain graph line 4
INFO: -----------------------------------
    Task: explain
Thu Jul 14 20:09:59 2022
INFO: Load Dataset devign
INFO: Loading model...
INFO: DevignModel(
  (ggnn): GatedGraphConv(
    (linears): ModuleList(
      (0): Linear(in_features=200, out_features=200, bias=True)
      (1): Linear(in_features=200, out_features=200, bias=True)
      (2): Linear(in_features=200, out_features=200, bias=True)
      (3): Linear(in_features=200, out_features=200, bias=True)
    )
    (gru): GRUCell(200, 200)
  )
  (conv_l1): Conv1d(200, 200, kernel_size=(3,), stride=(1,))
  (maxpool1): MaxPool1d(kernel_size=3, stride=2, padding=0, dilation=1, ceil_mode=False)
  (conv_l2): Conv1d(200, 200, kernel_size=(1,), stride=(1,))
  (maxpool2): MaxPool1d(kernel_size=2, stride=2, padding=0, dilation=1, ceil_mode=False)
  (conv_l1_for_concat): Conv1d(300, 300, kernel_size=(3,), stride=(1,))
  (maxpool1_for_concat): MaxPool1d(kernel_size=3, stride=2, padding=0, dilation=1, ceil_mode=False)
  (conv_l2_for_concat): Conv1d(300, 300, kernel_size=(1,), stride=(1,))
  (maxpool2_for_concat): MaxPool1d(kernel_size=2, stride=2, padding=0, dilation=1, ceil_mode=False)
  (batchnorm_1d): BatchNorm1d(200, eps=1e-05, momentum=0.1, affine=True, track_running_stats=True)
  (batchnorm_1d_for_concat): BatchNorm1d(300, eps=1e-05, momentum=0.1, affine=True, track_running_stats=True)
  (mlp_z): Linear(in_features=300, out_features=2, bias=True)
  (mlp_y): Linear(in_features=200, out_features=2, bias=True)
  (sigmoid): Sigmoid()
)
INFO: Config the model used to be explained...
INFO: Loading best Checkpoint ...
INFO: Create explainer: GNNExplainer...
INFO: Begin explain
INFO: explain graph line 4
INFO: -----------------------------------
    Task: explain
Thu Jul 14 20:17:17 2022
INFO: Load Dataset devign
INFO: Loading model...
INFO: DevignModel(
  (ggnn): GatedGraphConv(
    (linears): ModuleList(
      (0): Linear(in_features=200, out_features=200, bias=True)
      (1): Linear(in_features=200, out_features=200, bias=True)
      (2): Linear(in_features=200, out_features=200, bias=True)
      (3): Linear(in_features=200, out_features=200, bias=True)
    )
    (gru): GRUCell(200, 200)
  )
  (conv_l1): Conv1d(200, 200, kernel_size=(3,), stride=(1,))
  (maxpool1): MaxPool1d(kernel_size=3, stride=2, padding=0, dilation=1, ceil_mode=False)
  (conv_l2): Conv1d(200, 200, kernel_size=(1,), stride=(1,))
  (maxpool2): MaxPool1d(kernel_size=2, stride=2, padding=0, dilation=1, ceil_mode=False)
  (conv_l1_for_concat): Conv1d(300, 300, kernel_size=(3,), stride=(1,))
  (maxpool1_for_concat): MaxPool1d(kernel_size=3, stride=2, padding=0, dilation=1, ceil_mode=False)
  (conv_l2_for_concat): Conv1d(300, 300, kernel_size=(1,), stride=(1,))
  (maxpool2_for_concat): MaxPool1d(kernel_size=2, stride=2, padding=0, dilation=1, ceil_mode=False)
  (batchnorm_1d): BatchNorm1d(200, eps=1e-05, momentum=0.1, affine=True, track_running_stats=True)
  (batchnorm_1d_for_concat): BatchNorm1d(300, eps=1e-05, momentum=0.1, affine=True, track_running_stats=True)
  (mlp_z): Linear(in_features=300, out_features=2, bias=True)
  (mlp_y): Linear(in_features=200, out_features=2, bias=True)
  (sigmoid): Sigmoid()
)
INFO: Config the model used to be explained...
INFO: Loading best Checkpoint ...
INFO: Create explainer: GNNExplainer...
INFO: Begin explain
INFO: explain graph line 4
ERROR: 07/14/2022 08:18:44 PM - utils.py - line 87 : Traceback (most recent call last):
INFO: -----------------------------------
    Task: explain
Thu Jul 14 20:26:52 2022
INFO: Load Dataset devign
INFO: Loading model...
INFO: DevignModel(
  (ggnn): GatedGraphConv(
    (linears): ModuleList(
      (0): Linear(in_features=200, out_features=200, bias=True)
      (1): Linear(in_features=200, out_features=200, bias=True)
      (2): Linear(in_features=200, out_features=200, bias=True)
      (3): Linear(in_features=200, out_features=200, bias=True)
    )
    (gru): GRUCell(200, 200)
  )
  (conv_l1): Conv1d(200, 200, kernel_size=(3,), stride=(1,))
  (maxpool1): MaxPool1d(kernel_size=3, stride=2, padding=0, dilation=1, ceil_mode=False)
  (conv_l2): Conv1d(200, 200, kernel_size=(1,), stride=(1,))
  (maxpool2): MaxPool1d(kernel_size=2, stride=2, padding=0, dilation=1, ceil_mode=False)
  (conv_l1_for_concat): Conv1d(300, 300, kernel_size=(3,), stride=(1,))
  (maxpool1_for_concat): MaxPool1d(kernel_size=3, stride=2, padding=0, dilation=1, ceil_mode=False)
  (conv_l2_for_concat): Conv1d(300, 300, kernel_size=(1,), stride=(1,))
  (maxpool2_for_concat): MaxPool1d(kernel_size=2, stride=2, padding=0, dilation=1, ceil_mode=False)
  (batchnorm_1d): BatchNorm1d(200, eps=1e-05, momentum=0.1, affine=True, track_running_stats=True)
  (batchnorm_1d_for_concat): BatchNorm1d(300, eps=1e-05, momentum=0.1, affine=True, track_running_stats=True)
  (mlp_z): Linear(in_features=300, out_features=2, bias=True)
  (mlp_y): Linear(in_features=200, out_features=2, bias=True)
  (sigmoid): Sigmoid()
)
INFO: Config the model used to be explained...
INFO: Loading best Checkpoint ...
INFO: Create explainer: GNNExplainer...
INFO: Begin explain
INFO: explain graph line 1362
INFO: explain graph line 706
INFO: explain graph line 45
ERROR: 07/14/2022 08:33:44 PM - utils.py - line 87 : Traceback (most recent call last):
  File "/home/mytest/GNNExplainer-master/benchmark/kernel/pipeline.py", line 116, in <module>
…
INFO: explain graph line 1163
INFO: explain graph line 85
INFO: explain graph line 1048
INFO: explain graph line 1259
INFO: explain graph line 157
INFO: explain graph line 1091
INFO: explain graph line 927
INFO: explain graph line 1373
INFO: explain graph line 1237
INFO: explain graph line 1166
INFO: explain graph line 700
INFO: explain graph line 166
INFO: explain graph line 1242
INFO: explain graph line 307
INFO: -----------------------------------
    Task: explain
Wed Jul 20 10:23:00 2022
INFO: Load Dataset devign
INFO: Loading model...
INFO: DevignModel(
  (ggnn): GatedGraphConv(
    (linears): ModuleList(
      (0): Linear(in_features=200, out_features=200, bias=True)
      (1): Linear(in_features=200, out_features=200, bias=True)
      (2): Linear(in_features=200, out_features=200, bias=True)
      (3): Linear(in_features=200, out_features=200, bias=True)
    )
    (gru): GRUCell(200, 200)
  )
  (conv_l1): Conv1d(200, 200, kernel_size=(3,), stride=(1,))
  (maxpool1): MaxPool1d(kernel_size=3, stride=2, padding=0, dilation=1, ceil_mode=False)
  (conv_l2): Conv1d(200, 200, kernel_size=(1,), stride=(1,))
  (maxpool2): MaxPool1d(kernel_size=2, stride=2, padding=0, dilation=1, ceil_mode=False)
  (conv_l1_for_concat): Conv1d(300, 300, kernel_size=(3,), stride=(1,))
  (maxpool1_for_concat): MaxPool1d(kernel_size=3, stride=2, padding=0, dilation=1, ceil_mode=False)
  (conv_l2_for_concat): Conv1d(300, 300, kernel_size=(1,), stride=(1,))
  (maxpool2_for_concat): MaxPool1d(kernel_size=2, stride=2, padding=0, dilation=1, ceil_mode=False)
  (batchnorm_1d): BatchNorm1d(200, eps=1e-05, momentum=0.1, affine=True, track_running_stats=True)
  (batchnorm_1d_for_concat): BatchNorm1d(300, eps=1e-05, momentum=0.1, affine=True, track_running_stats=True)
  (mlp_z): Linear(in_features=300, out_features=2, bias=True)
  (mlp_y): Linear(in_features=200, out_features=2, bias=True)
  (sigmoid): Sigmoid()
)
INFO: Config the model used to be explained...
INFO: Loading best Checkpoint ...
INFO: Create explainer: GNNExplainer...
INFO: Begin explain
INFO: explain graph line 1362
INFO: -----------------------------------
    Task: explain
Wed Jul 20 10:24:02 2022
INFO: Load Dataset devign
INFO: Loading model...
INFO: DevignModel(
  (ggnn): GatedGraphConv(
    (linears): ModuleList(
      (0): Linear(in_features=200, out_features=200, bias=True)
      (1): Linear(in_features=200, out_features=200, bias=True)
      (2): Linear(in_features=200, out_features=200, bias=True)
      (3): Linear(in_features=200, out_features=200, bias=True)
    )
    (gru): GRUCell(200, 200)
  )
  (conv_l1): Conv1d(200, 200, kernel_size=(3,), stride=(1,))
  (maxpool1): MaxPool1d(kernel_size=3, stride=2, padding=0, dilation=1, ceil_mode=False)
  (conv_l2): Conv1d(200, 200, kernel_size=(1,), stride=(1,))
  (maxpool2): MaxPool1d(kernel_size=2, stride=2, padding=0, dilation=1, ceil_mode=False)
  (conv_l1_for_concat): Conv1d(300, 300, kernel_size=(3,), stride=(1,))
  (maxpool1_for_concat): MaxPool1d(kernel_size=3, stride=2, padding=0, dilation=1, ceil_mode=False)
  (conv_l2_for_concat): Conv1d(300, 300, kernel_size=(1,), stride=(1,))
  (maxpool2_for_concat): MaxPool1d(kernel_size=2, stride=2, padding=0, dilation=1, ceil_mode=False)
  (batchnorm_1d): BatchNorm1d(200, eps=1e-05, momentum=0.1, affine=True, track_running_stats=True)
  (batchnorm_1d_for_concat): BatchNorm1d(300, eps=1e-05, momentum=0.1, affine=True, track_running_stats=True)
  (mlp_z): Linear(in_features=300, out_features=2, bias=True)
  (mlp_y): Linear(in_features=200, out_features=2, bias=True)
  (sigmoid): Sigmoid()
)
INFO: Config the model used to be explained...
INFO: Loading best Checkpoint ...
INFO: Create explainer: GNNExplainer...
INFO: Begin explain
INFO: explain graph line 1362
INFO: explain graph line 782
INFO: explain graph line 565
INFO: explain graph line 651
INFO: explain graph line 770
INFO: explain graph line 510
INFO: -----------------------------------
    Task: explain
Wed Jul 20 10:42:22 2022
INFO: Load Dataset devign
INFO: Loading model...
INFO: DevignModel(
  (ggnn): GatedGraphConv(
    (linears): ModuleList(
      (0): Linear(in_features=200, out_features=200, bias=True)
      (1): Linear(in_features=200, out_features=200, bias=True)
      (2): Linear(in_features=200, out_features=200, bias=True)
      (3): Linear(in_features=200, out_features=200, bias=True)
    )
    (gru): GRUCell(200, 200)
  )
  (conv_l1): Conv1d(200, 200, kernel_size=(3,), stride=(1,))
  (maxpool1): MaxPool1d(kernel_size=3, stride=2, padding=0, dilation=1, ceil_mode=False)
  (conv_l2): Conv1d(200, 200, kernel_size=(1,), stride=(1,))
  (maxpool2): MaxPool1d(kernel_size=2, stride=2, padding=0, dilation=1, ceil_mode=False)
  (conv_l1_for_concat): Conv1d(300, 300, kernel_size=(3,), stride=(1,))
  (maxpool1_for_concat): MaxPool1d(kernel_size=3, stride=2, padding=0, dilation=1, ceil_mode=False)
  (conv_l2_for_concat): Conv1d(300, 300, kernel_size=(1,), stride=(1,))
  (maxpool2_for_concat): MaxPool1d(kernel_size=2, stride=2, padding=0, dilation=1, ceil_mode=False)
  (batchnorm_1d): BatchNorm1d(200, eps=1e-05, momentum=0.1, affine=True, track_running_stats=True)
  (batchnorm_1d_for_concat): BatchNorm1d(300, eps=1e-05, momentum=0.1, affine=True, track_running_stats=True)
  (mlp_z): Linear(in_features=300, out_features=2, bias=True)
  (mlp_y): Linear(in_features=200, out_features=2, bias=True)
  (sigmoid): Sigmoid()
)
INFO: Config the model used to be explained...
INFO: Loading best Checkpoint ...
INFO: Create explainer: GNNExplainer...
INFO: Begin explain
INFO: explain graph line 1362
INFO: explain graph line 462
INFO: explain graph line 725
INFO: explain graph line 241
INFO: explain graph line 558
INFO: explain graph line 637
INFO: explain graph line 52
INFO: explain graph line 28
INFO: explain graph line 1119
INFO: explain graph line 989
INFO: explain graph line 705
INFO: explain graph line 570
INFO: explain graph line 993
INFO: explain graph line 218
INFO: explain graph line 679
INFO: -----------------------------------
    Task: explain
Wed Jul 20 11:19:31 2022
INFO: Load Dataset devign
INFO: Loading model...
INFO: DevignModel(
  (ggnn): GatedGraphConv(
    (linears): ModuleList(
      (0): Linear(in_features=200, out_features=200, bias=True)
      (1): Linear(in_features=200, out_features=200, bias=True)
      (2): Linear(in_features=200, out_features=200, bias=True)
      (3): Linear(in_features=200, out_features=200, bias=True)
    )
    (gru): GRUCell(200, 200)
  )
  (conv_l1): Conv1d(200, 200, kernel_size=(3,), stride=(1,))
  (maxpool1): MaxPool1d(kernel_size=3, stride=2, padding=0, dilation=1, ceil_mode=False)
  (conv_l2): Conv1d(200, 200, kernel_size=(1,), stride=(1,))
  (maxpool2): MaxPool1d(kernel_size=2, stride=2, padding=0, dilation=1, ceil_mode=False)
  (conv_l1_for_concat): Conv1d(300, 300, kernel_size=(3,), stride=(1,))
  (maxpool1_for_concat): MaxPool1d(kernel_size=3, stride=2, padding=0, dilation=1, ceil_mode=False)
  (conv_l2_for_concat): Conv1d(300, 300, kernel_size=(1,), stride=(1,))
  (maxpool2_for_concat): MaxPool1d(kernel_size=2, stride=2, padding=0, dilation=1, ceil_mode=False)
  (batchnorm_1d): BatchNorm1d(200, eps=1e-05, momentum=0.1, affine=True, track_running_stats=True)
  (batchnorm_1d_for_concat): BatchNorm1d(300, eps=1e-05, momentum=0.1, affine=True, track_running_stats=True)
  (mlp_z): Linear(in_features=300, out_features=2, bias=True)
  (mlp_y): Linear(in_features=200, out_features=2, bias=True)
  (sigmoid): Sigmoid()
)
INFO: Config the model used to be explained...
INFO: Loading best Checkpoint ...
INFO: Create explainer: GNNExplainer...
INFO: Begin explain
INFO: explain graph line 1362
INFO: explain graph line 1353
INFO: explain graph line 895
INFO: explain graph line 1297
ERROR: 07/20/2022 11:22:50 AM - utils.py - line 87 : Traceback (most recent call last):
…
  File "/root/anaconda3/envs/xgraph/lib/python3.8/json/encoder.py", line 438, in _iterencode
    o = _default(o)
  File "/root/anaconda3/envs/xgraph/lib/python3.8/json/encoder.py", line 179, in default
    raise TypeError(f'Object of type {o.__class__.__name__} '
TypeError: Object of type Tensor is not JSON serializable
INFO: explain graph line 350
INFO: explain graph line 791
INFO: explain graph line 421
INFO: explain graph line 647
INFO: explain graph line 590
INFO: -----------------------------------
    Task: explain
Wed Jul 20 11:41:37 2022
INFO: Load Dataset devign
INFO: Loading model...
INFO: DevignModel(
  (ggnn): GatedGraphConv(
    (linears): ModuleList(
      (0): Linear(in_features=200, out_features=200, bias=True)
      (1): Linear(in_features=200, out_features=200, bias=True)
      (2): Linear(in_features=200, out_features=200, bias=True)
      (3): Linear(in_features=200, out_features=200, bias=True)
    )
    (gru): GRUCell(200, 200)
  )
  (conv_l1): Conv1d(200, 200, kernel_size=(3,), stride=(1,))
  (maxpool1): MaxPool1d(kernel_size=3, stride=2, padding=0, dilation=1, ceil_mode=False)
  (conv_l2): Conv1d(200, 200, kernel_size=(1,), stride=(1,))
  (maxpool2): MaxPool1d(kernel_size=2, stride=2, padding=0, dilation=1, ceil_mode=False)
  (conv_l1_for_concat): Conv1d(300, 300, kernel_size=(3,), stride=(1,))
  (maxpool1_for_concat): MaxPool1d(kernel_size=3, stride=2, padding=0, dilation=1, ceil_mode=False)
  (conv_l2_for_concat): Conv1d(300, 300, kernel_size=(1,), stride=(1,))
  (maxpool2_for_concat): MaxPool1d(kernel_size=2, stride=2, padding=0, dilation=1, ceil_mode=False)
  (batchnorm_1d): BatchNorm1d(200, eps=1e-05, momentum=0.1, affine=True, track_running_stats=True)
  (batchnorm_1d_for_concat): BatchNorm1d(300, eps=1e-05, momentum=0.1, affine=True, track_running_stats=True)
  (mlp_z): Linear(in_features=300, out_features=2, bias=True)
  (mlp_y): Linear(in_features=200, out_features=2, bias=True)
  (sigmoid): Sigmoid()
)
INFO: Config the model used to be explained...
INFO: Loading best Checkpoint ...
INFO: Create explainer: GNNExplainer...
INFO: Begin explain
INFO: explain graph line 1362
INFO: explain graph line 369
INFO: explain graph line 884
INFO: explain graph line 375
INFO: explain graph line 1347
INFO: -----------------------------------
    Task: explain
Wed Jul 20 11:49:25 2022
INFO: Load Dataset devign
INFO: Loading model...
INFO: DevignModel(
  (ggnn): GatedGraphConv(
    (linears): ModuleList(
      (0): Linear(in_features=200, out_features=200, bias=True)
      (1): Linear(in_features=200, out_features=200, bias=True)
      (2): Linear(in_features=200, out_features=200, bias=True)
      (3): Linear(in_features=200, out_features=200, bias=True)
    )
    (gru): GRUCell(200, 200)
  )
  (conv_l1): Conv1d(200, 200, kernel_size=(3,), stride=(1,))
  (maxpool1): MaxPool1d(kernel_size=3, stride=2, padding=0, dilation=1, ceil_mode=False)
  (conv_l2): Conv1d(200, 200, kernel_size=(1,), stride=(1,))
  (maxpool2): MaxPool1d(kernel_size=2, stride=2, padding=0, dilation=1, ceil_mode=False)
  (conv_l1_for_concat): Conv1d(300, 300, kernel_size=(3,), stride=(1,))
  (maxpool1_for_concat): MaxPool1d(kernel_size=3, stride=2, padding=0, dilation=1, ceil_mode=False)
  (conv_l2_for_concat): Conv1d(300, 300, kernel_size=(1,), stride=(1,))
  (maxpool2_for_concat): MaxPool1d(kernel_size=2, stride=2, padding=0, dilation=1, ceil_mode=False)
  (batchnorm_1d): BatchNorm1d(200, eps=1e-05, momentum=0.1, affine=True, track_running_stats=True)
  (batchnorm_1d_for_concat): BatchNorm1d(300, eps=1e-05, momentum=0.1, affine=True, track_running_stats=True)
  (mlp_z): Linear(in_features=300, out_features=2, bias=True)
  (mlp_y): Linear(in_features=200, out_features=2, bias=True)
  (sigmoid): Sigmoid()
)
INFO: Config the model used to be explained...
INFO: Loading best Checkpoint ...
INFO: Create explainer: GNNExplainer...
INFO: Begin explain
INFO: explain graph line 1362
INFO: explain graph line 259
INFO: explain graph line 528
INFO: explain graph line 1126
INFO: -----------------------------------
    Task: explain
Wed Jul 20 11:56:54 2022
INFO: Load Dataset devign
INFO: Loading model...
INFO: DevignModel(
  (ggnn): GatedGraphConv(
    (linears): ModuleList(
      (0): Linear(in_features=200, out_features=200, bias=True)
      (1): Linear(in_features=200, out_features=200, bias=True)
      (2): Linear(in_features=200, out_features=200, bias=True)
      (3): Linear(in_features=200, out_features=200, bias=True)
    )
    (gru): GRUCell(200, 200)
  )
  (conv_l1): Conv1d(200, 200, kernel_size=(3,), stride=(1,))
  (maxpool1): MaxPool1d(kernel_size=3, stride=2, padding=0, dilation=1, ceil_mode=False)
  (conv_l2): Conv1d(200, 200, kernel_size=(1,), stride=(1,))
  (maxpool2): MaxPool1d(kernel_size=2, stride=2, padding=0, dilation=1, ceil_mode=False)
  (conv_l1_for_concat): Conv1d(300, 300, kernel_size=(3,), stride=(1,))
  (maxpool1_for_concat): MaxPool1d(kernel_size=3, stride=2, padding=0, dilation=1, ceil_mode=False)
  (conv_l2_for_concat): Conv1d(300, 300, kernel_size=(1,), stride=(1,))
  (maxpool2_for_concat): MaxPool1d(kernel_size=2, stride=2, padding=0, dilation=1, ceil_mode=False)
  (batchnorm_1d): BatchNorm1d(200, eps=1e-05, momentum=0.1, affine=True, track_running_stats=True)
  (batchnorm_1d_for_concat): BatchNorm1d(300, eps=1e-05, momentum=0.1, affine=True, track_running_stats=True)
  (mlp_z): Linear(in_features=300, out_features=2, bias=True)
  (mlp_y): Linear(in_features=200, out_features=2, bias=True)
  (sigmoid): Sigmoid()
)
INFO: Config the model used to be explained...
INFO: Loading best Checkpoint ...
INFO: Create explainer: GNNExplainer...
INFO: Begin explain
INFO: explain graph line 1362
INFO: explain graph line 636
INFO: explain graph line 1386
ERROR: 07/20/2022 11:59:47 AM - utils.py - line 87 : Traceback (most recent call last):
  File "/home/mytest/GNNExplainer-master/benchmark/kernel/pipeline.py", line 116, in <module>
…
  File "/root/anaconda3/envs/xgraph/lib/python3.8/site-packages/dgl/heterograph.py", line 534, in add_edges
    self._edge_frames[etid].append(data)
  File "/root/anaconda3/envs/xgraph/lib/python3.8/site-packages/dgl/frame.py", line 541, in append
    other = Frame(other)
  File "/root/anaconda3/envs/xgraph/lib/python3.8/site-packages/dgl/frame.py", line 322, in __init__
    self._default_initializer = None
KeyboardInterrupt
INFO: -----------------------------------
    Task: explain
Sat Jul 23 19:01:23 2022
INFO: Load Dataset devign
INFO: Loading model...
INFO: DevignModel(
  (ggnn): GatedGraphConv(
    (linears): ModuleList(
      (0): Linear(in_features=200, out_features=200, bias=True)
      (1): Linear(in_features=200, out_features=200, bias=True)
      (2): Linear(in_features=200, out_features=200, bias=True)
      (3): Linear(in_features=200, out_features=200, bias=True)
    )
    (gru): GRUCell(200, 200)
  )
  (conv_l1): Conv1d(200, 200, kernel_size=(3,), stride=(1,))
  (maxpool1): MaxPool1d(kernel_size=3, stride=2, padding=0, dilation=1, ceil_mode=False)
  (conv_l2): Conv1d(200, 200, kernel_size=(1,), stride=(1,))
  (maxpool2): MaxPool1d(kernel_size=2, stride=2, padding=0, dilation=1, ceil_mode=False)
  (conv_l1_for_concat): Conv1d(300, 300, kernel_size=(3,), stride=(1,))
  (maxpool1_for_concat): MaxPool1d(kernel_size=3, stride=2, padding=0, dilation=1, ceil_mode=False)
  (conv_l2_for_concat): Conv1d(300, 300, kernel_size=(1,), stride=(1,))
  (maxpool2_for_concat): MaxPool1d(kernel_size=2, stride=2, padding=0, dilation=1, ceil_mode=False)
  (batchnorm_1d): BatchNorm1d(200, eps=1e-05, momentum=0.1, affine=True, track_running_stats=True)
  (batchnorm_1d_for_concat): BatchNorm1d(300, eps=1e-05, momentum=0.1, affine=True, track_running_stats=True)
  (mlp_z): Linear(in_features=300, out_features=2, bias=True)
  (mlp_y): Linear(in_features=200, out_features=2, bias=True)
  (sigmoid): Sigmoid()
)
INFO: Config the model used to be explained...
INFO: Loading best Checkpoint ...
INFO: Create explainer: GNNExplainer...
INFO: Begin explain
INFO: explain graph line 71
INFO: explain graph line 103
INFO: explain graph line 589
INFO: explain graph line 1359
INFO: explain graph line 739
INFO: -----------------------------------
    Task: explain
Sat Jul 23 19:10:32 2022
INFO: Load Dataset devign
INFO: Loading model...
INFO: DevignModel(
  (ggnn): GatedGraphConv(
    (linears): ModuleList(
      (0): Linear(in_features=200, out_features=200, bias=True)
      (1): Linear(in_features=200, out_features=200, bias=True)
      (2): Linear(in_features=200, out_features=200, bias=True)
      (3): Linear(in_features=200, out_features=200, bias=True)
    )
    (gru): GRUCell(200, 200)
  )
  (conv_l1): Conv1d(200, 200, kernel_size=(3,), stride=(1,))
  (maxpool1): MaxPool1d(kernel_size=3, stride=2, padding=0, dilation=1, ceil_mode=False)
  (conv_l2): Conv1d(200, 200, kernel_size=(1,), stride=(1,))
  (maxpool2): MaxPool1d(kernel_size=2, stride=2, padding=0, dilation=1, ceil_mode=False)
  (conv_l1_for_concat): Conv1d(300, 300, kernel_size=(3,), stride=(1,))
  (maxpool1_for_concat): MaxPool1d(kernel_size=3, stride=2, padding=0, dilation=1, ceil_mode=False)
  (conv_l2_for_concat): Conv1d(300, 300, kernel_size=(1,), stride=(1,))
  (maxpool2_for_concat): MaxPool1d(kernel_size=2, stride=2, padding=0, dilation=1, ceil_mode=False)
  (batchnorm_1d): BatchNorm1d(200, eps=1e-05, momentum=0.1, affine=True, track_running_stats=True)
  (batchnorm_1d_for_concat): BatchNorm1d(300, eps=1e-05, momentum=0.1, affine=True, track_running_stats=True)
  (mlp_z): Linear(in_features=300, out_features=2, bias=True)
  (mlp_y): Linear(in_features=200, out_features=2, bias=True)
  (sigmoid): Sigmoid()
)
INFO: Config the model used to be explained...
INFO: Loading best Checkpoint ...
INFO: Create explainer: GNNExplainer...
INFO: Begin explain
INFO: explain graph line 71
INFO: explain graph line 272
INFO: explain graph line 196
INFO: explain graph line 343
INFO: explain graph line 240
INFO: explain graph line 585
INFO: explain graph line 1024
…
